{"modelTopology": {"training_config": {"metrics": ["accuracy"], "loss": ["categorical_crossentropy", "categorical_crossentropy", "categorical_crossentropy", "categorical_crossentropy"], "optimizer_config": {"class_name": "Adam", "config": {"beta_1": 0.8999999761581421, "beta_2": 0.9990000128746033, "decay": 0.0, "epsilon": 1e-07, "amsgrad": false, "lr": 0.0010000000474974513}}, "sample_weight_mode": null, "loss_weights": null}, "keras_version": "2.2.4", "model_config": {"class_name": "Model", "config": {"layers": [{"class_name": "InputLayer", "inbound_nodes": [], "config": {"dtype": "float32", "batch_input_shape": [null, 224, 224, 3], "name": "input_1", "sparse": false}, "name": "input_1"}, {"class_name": "Model", "inbound_nodes": [[["input_1", 0, 0, {}]]], "config": {"layers": [{"class_name": "InputLayer", "config": {"dtype": "float32", "batch_input_shape": [null, 224, 224, 3], "name": "input_36", "sparse": false}, "inbound_nodes": [], "name": "input_36"}, {"class_name": "ZeroPadding2D", "config": {"padding": [[0, 1], [0, 1]], "trainable": true, "name": "Conv1_pad", "data_format": "channels_last"}, "inbound_nodes": [[["input_36", 0, 0, {}]]], "name": "Conv1_pad"}, {"class_name": "Conv2D", "config": {"kernel_initializer": {"class_name": "VarianceScaling", "config": {"distribution": "uniform", "scale": 1.0, "seed": null, "mode": "fan_avg"}}, "name": "Conv1", "kernel_constraint": null, "bias_regularizer": null, "bias_constraint": null, "activation": "linear", "trainable": true, "data_format": "channels_last", "padding": "valid", "strides": [2, 2], "dilation_rate": [1, 1], "kernel_regularizer": null, "filters": 32, "bias_initializer": {"class_name": "Zeros", "config": {}}, "use_bias": false, "activity_regularizer": null, "kernel_size": [3, 3]}, "inbound_nodes": [[["Conv1_pad", 0, 0, {}]]], "name": "Conv1"}, {"class_name": "BatchNormalization", "config": {"beta_constraint": null, "gamma_initializer": {"class_name": "Ones", "config": {}}, "moving_mean_initializer": {"class_name": "Zeros", "config": {}}, "name": "bn_Conv1", "epsilon": 0.001, "trainable": true, "moving_variance_initializer": {"class_name": "Ones", "config": {}}, "beta_initializer": {"class_name": "Zeros", "config": {}}, "scale": true, "axis": -1, "gamma_constraint": null, "gamma_regularizer": null, "beta_regularizer": null, "momentum": 0.999, "center": true}, "inbound_nodes": [[["Conv1", 0, 0, {}]]], "name": "bn_Conv1"}, {"class_name": "ReLU", "config": {"threshold": 0.0, "max_value": 6.0, "trainable": true, "name": "Conv1_relu", "negative_slope": 0.0}, "inbound_nodes": [[["bn_Conv1", 0, 0, {}]]], "name": "Conv1_relu"}, {"class_name": "DepthwiseConv2D", "config": {"use_bias": false, "trainable": true, "name": "expanded_conv_depthwise", "bias_regularizer": null, "bias_constraint": null, "activation": "linear", "depth_multiplier": 1, "depthwise_constraint": null, "data_format": "channels_last", "padding": "same", "strides": [1, 1], "dilation_rate": [1, 1], "depthwise_initializer": {"class_name": "VarianceScaling", "config": {"distribution": "uniform", "scale": 1.0, "seed": null, "mode": "fan_avg"}}, "bias_initializer": {"class_name": "Zeros", "config": {}}, "depthwise_regularizer": null, "activity_regularizer": null, "kernel_size": [3, 3]}, "inbound_nodes": [[["Conv1_relu", 0, 0, {}]]], "name": "expanded_conv_depthwise"}, {"class_name": "BatchNormalization", "config": {"beta_constraint": null, "gamma_initializer": {"class_name": "Ones", "config": {}}, "moving_mean_initializer": {"class_name": "Zeros", "config": {}}, "name": "expanded_conv_depthwise_BN", "epsilon": 0.001, "trainable": true, "moving_variance_initializer": {"class_name": "Ones", "config": {}}, "beta_initializer": {"class_name": "Zeros", "config": {}}, "scale": true, "axis": -1, "gamma_constraint": null, "gamma_regularizer": null, "beta_regularizer": null, "momentum": 0.999, "center": true}, "inbound_nodes": [[["expanded_conv_depthwise", 0, 0, {}]]], "name": "expanded_conv_depthwise_BN"}, {"class_name": "ReLU", "config": {"threshold": 0.0, "max_value": 6.0, "trainable": true, "name": "expanded_conv_depthwise_relu", "negative_slope": 0.0}, "inbound_nodes": [[["expanded_conv_depthwise_BN", 0, 0, {}]]], "name": "expanded_conv_depthwise_relu"}, {"class_name": "Conv2D", "config": {"kernel_initializer": {"class_name": "VarianceScaling", "config": {"distribution": "uniform", "scale": 1.0, "seed": null, "mode": "fan_avg"}}, "name": "expanded_conv_project", "kernel_constraint": null, "bias_regularizer": null, "bias_constraint": null, "activation": "linear", "trainable": true, "data_format": "channels_last", "padding": "same", "strides": [1, 1], "dilation_rate": [1, 1], "kernel_regularizer": null, "filters": 16, "bias_initializer": {"class_name": "Zeros", "config": {}}, "use_bias": false, "activity_regularizer": null, "kernel_size": [1, 1]}, "inbound_nodes": [[["expanded_conv_depthwise_relu", 0, 0, {}]]], "name": "expanded_conv_project"}, {"class_name": "BatchNormalization", "config": {"beta_constraint": null, "gamma_initializer": {"class_name": "Ones", "config": {}}, "moving_mean_initializer": {"class_name": "Zeros", "config": {}}, "name": "expanded_conv_project_BN", "epsilon": 0.001, "trainable": true, "moving_variance_initializer": {"class_name": "Ones", "config": {}}, "beta_initializer": {"class_name": "Zeros", "config": {}}, "scale": true, "axis": -1, "gamma_constraint": null, "gamma_regularizer": null, "beta_regularizer": null, "momentum": 0.999, "center": true}, "inbound_nodes": [[["expanded_conv_project", 0, 0, {}]]], "name": "expanded_conv_project_BN"}, {"class_name": "Conv2D", "config": {"kernel_initializer": {"class_name": "VarianceScaling", "config": {"distribution": "uniform", "scale": 1.0, "seed": null, "mode": "fan_avg"}}, "name": "block_1_expand", "kernel_constraint": null, "bias_regularizer": null, "bias_constraint": null, "activation": "linear", "trainable": true, "data_format": "channels_last", "padding": "same", "strides": [1, 1], "dilation_rate": [1, 1], "kernel_regularizer": null, "filters": 96, "bias_initializer": {"class_name": "Zeros", "config": {}}, "use_bias": false, "activity_regularizer": null, "kernel_size": [1, 1]}, "inbound_nodes": [[["expanded_conv_project_BN", 0, 0, {}]]], "name": "block_1_expand"}, {"class_name": "BatchNormalization", "config": {"beta_constraint": null, "gamma_initializer": {"class_name": "Ones", "config": {}}, "moving_mean_initializer": {"class_name": "Zeros", "config": {}}, "name": "block_1_expand_BN", "epsilon": 0.001, "trainable": true, "moving_variance_initializer": {"class_name": "Ones", "config": {}}, "beta_initializer": {"class_name": "Zeros", "config": {}}, "scale": true, "axis": -1, "gamma_constraint": null, "gamma_regularizer": null, "beta_regularizer": null, "momentum": 0.999, "center": true}, "inbound_nodes": [[["block_1_expand", 0, 0, {}]]], "name": "block_1_expand_BN"}, {"class_name": "ReLU", "config": {"threshold": 0.0, "max_value": 6.0, "trainable": true, "name": "block_1_expand_relu", "negative_slope": 0.0}, "inbound_nodes": [[["block_1_expand_BN", 0, 0, {}]]], "name": "block_1_expand_relu"}, {"class_name": "ZeroPadding2D", "config": {"padding": [[0, 1], [0, 1]], "trainable": true, "name": "block_1_pad", "data_format": "channels_last"}, "inbound_nodes": [[["block_1_expand_relu", 0, 0, {}]]], "name": "block_1_pad"}, {"class_name": "DepthwiseConv2D", "config": {"use_bias": false, "trainable": true, "name": "block_1_depthwise", "bias_regularizer": null, "bias_constraint": null, "activation": "linear", "depth_multiplier": 1, "depthwise_constraint": null, "data_format": "channels_last", "padding": "valid", "strides": [2, 2], "dilation_rate": [1, 1], "depthwise_initializer": {"class_name": "VarianceScaling", "config": {"distribution": "uniform", "scale": 1.0, "seed": null, "mode": "fan_avg"}}, "bias_initializer": {"class_name": "Zeros", "config": {}}, "depthwise_regularizer": null, "activity_regularizer": null, "kernel_size": [3, 3]}, "inbound_nodes": [[["block_1_pad", 0, 0, {}]]], "name": "block_1_depthwise"}, {"class_name": "BatchNormalization", "config": {"beta_constraint": null, "gamma_initializer": {"class_name": "Ones", "config": {}}, "moving_mean_initializer": {"class_name": "Zeros", "config": {}}, "name": "block_1_depthwise_BN", "epsilon": 0.001, "trainable": true, "moving_variance_initializer": {"class_name": "Ones", "config": {}}, "beta_initializer": {"class_name": "Zeros", "config": {}}, "scale": true, "axis": -1, "gamma_constraint": null, "gamma_regularizer": null, "beta_regularizer": null, "momentum": 0.999, "center": true}, "inbound_nodes": [[["block_1_depthwise", 0, 0, {}]]], "name": "block_1_depthwise_BN"}, {"class_name": "ReLU", "config": {"threshold": 0.0, "max_value": 6.0, "trainable": true, "name": "block_1_depthwise_relu", "negative_slope": 0.0}, "inbound_nodes": [[["block_1_depthwise_BN", 0, 0, {}]]], "name": "block_1_depthwise_relu"}, {"class_name": "Conv2D", "config": {"kernel_initializer": {"class_name": "VarianceScaling", "config": {"distribution": "uniform", "scale": 1.0, "seed": null, "mode": "fan_avg"}}, "name": "block_1_project", "kernel_constraint": null, "bias_regularizer": null, "bias_constraint": null, "activation": "linear", "trainable": true, "data_format": "channels_last", "padding": "same", "strides": [1, 1], "dilation_rate": [1, 1], "kernel_regularizer": null, "filters": 24, "bias_initializer": {"class_name": "Zeros", "config": {}}, "use_bias": false, "activity_regularizer": null, "kernel_size": [1, 1]}, "inbound_nodes": [[["block_1_depthwise_relu", 0, 0, {}]]], "name": "block_1_project"}, {"class_name": "BatchNormalization", "config": {"beta_constraint": null, "gamma_initializer": {"class_name": "Ones", "config": {}}, "moving_mean_initializer": {"class_name": "Zeros", "config": {}}, "name": "block_1_project_BN", "epsilon": 0.001, "trainable": true, "moving_variance_initializer": {"class_name": "Ones", "config": {}}, "beta_initializer": {"class_name": "Zeros", "config": {}}, "scale": true, "axis": -1, "gamma_constraint": null, "gamma_regularizer": null, "beta_regularizer": null, "momentum": 0.999, "center": true}, "inbound_nodes": [[["block_1_project", 0, 0, {}]]], "name": "block_1_project_BN"}, {"class_name": "Conv2D", "config": {"kernel_initializer": {"class_name": "VarianceScaling", "config": {"distribution": "uniform", "scale": 1.0, "seed": null, "mode": "fan_avg"}}, "name": "block_2_expand", "kernel_constraint": null, "bias_regularizer": null, "bias_constraint": null, "activation": "linear", "trainable": true, "data_format": "channels_last", "padding": "same", "strides": [1, 1], "dilation_rate": [1, 1], "kernel_regularizer": null, "filters": 144, "bias_initializer": {"class_name": "Zeros", "config": {}}, "use_bias": false, "activity_regularizer": null, "kernel_size": [1, 1]}, "inbound_nodes": [[["block_1_project_BN", 0, 0, {}]]], "name": "block_2_expand"}, {"class_name": "BatchNormalization", "config": {"beta_constraint": null, "gamma_initializer": {"class_name": "Ones", "config": {}}, "moving_mean_initializer": {"class_name": "Zeros", "config": {}}, "name": "block_2_expand_BN", "epsilon": 0.001, "trainable": true, "moving_variance_initializer": {"class_name": "Ones", "config": {}}, "beta_initializer": {"class_name": "Zeros", "config": {}}, "scale": true, "axis": -1, "gamma_constraint": null, "gamma_regularizer": null, "beta_regularizer": null, "momentum": 0.999, "center": true}, "inbound_nodes": [[["block_2_expand", 0, 0, {}]]], "name": "block_2_expand_BN"}, {"class_name": "ReLU", "config": {"threshold": 0.0, "max_value": 6.0, "trainable": true, "name": "block_2_expand_relu", "negative_slope": 0.0}, "inbound_nodes": [[["block_2_expand_BN", 0, 0, {}]]], "name": "block_2_expand_relu"}, {"class_name": "DepthwiseConv2D", "config": {"use_bias": false, "trainable": true, "name": "block_2_depthwise", "bias_regularizer": null, "bias_constraint": null, "activation": "linear", "depth_multiplier": 1, "depthwise_constraint": null, "data_format": "channels_last", "padding": "same", "strides": [1, 1], "dilation_rate": [1, 1], "depthwise_initializer": {"class_name": "VarianceScaling", "config": {"distribution": "uniform", "scale": 1.0, "seed": null, "mode": "fan_avg"}}, "bias_initializer": {"class_name": "Zeros", "config": {}}, "depthwise_regularizer": null, "activity_regularizer": null, "kernel_size": [3, 3]}, "inbound_nodes": [[["block_2_expand_relu", 0, 0, {}]]], "name": "block_2_depthwise"}, {"class_name": "BatchNormalization", "config": {"beta_constraint": null, "gamma_initializer": {"class_name": "Ones", "config": {}}, "moving_mean_initializer": {"class_name": "Zeros", "config": {}}, "name": "block_2_depthwise_BN", "epsilon": 0.001, "trainable": true, "moving_variance_initializer": {"class_name": "Ones", "config": {}}, "beta_initializer": {"class_name": "Zeros", "config": {}}, "scale": true, "axis": -1, "gamma_constraint": null, "gamma_regularizer": null, "beta_regularizer": null, "momentum": 0.999, "center": true}, "inbound_nodes": [[["block_2_depthwise", 0, 0, {}]]], "name": "block_2_depthwise_BN"}, {"class_name": "ReLU", "config": {"threshold": 0.0, "max_value": 6.0, "trainable": true, "name": "block_2_depthwise_relu", "negative_slope": 0.0}, "inbound_nodes": [[["block_2_depthwise_BN", 0, 0, {}]]], "name": "block_2_depthwise_relu"}, {"class_name": "Conv2D", "config": {"kernel_initializer": {"class_name": "VarianceScaling", "config": {"distribution": "uniform", "scale": 1.0, "seed": null, "mode": "fan_avg"}}, "name": "block_2_project", "kernel_constraint": null, "bias_regularizer": null, "bias_constraint": null, "activation": "linear", "trainable": true, "data_format": "channels_last", "padding": "same", "strides": [1, 1], "dilation_rate": [1, 1], "kernel_regularizer": null, "filters": 24, "bias_initializer": {"class_name": "Zeros", "config": {}}, "use_bias": false, "activity_regularizer": null, "kernel_size": [1, 1]}, "inbound_nodes": [[["block_2_depthwise_relu", 0, 0, {}]]], "name": "block_2_project"}, {"class_name": "BatchNormalization", "config": {"beta_constraint": null, "gamma_initializer": {"class_name": "Ones", "config": {}}, "moving_mean_initializer": {"class_name": "Zeros", "config": {}}, "name": "block_2_project_BN", "epsilon": 0.001, "trainable": true, "moving_variance_initializer": {"class_name": "Ones", "config": {}}, "beta_initializer": {"class_name": "Zeros", "config": {}}, "scale": true, "axis": -1, "gamma_constraint": null, "gamma_regularizer": null, "beta_regularizer": null, "momentum": 0.999, "center": true}, "inbound_nodes": [[["block_2_project", 0, 0, {}]]], "name": "block_2_project_BN"}, {"class_name": "Add", "config": {"trainable": true, "name": "block_2_add"}, "inbound_nodes": [[["block_1_project_BN", 0, 0, {}], ["block_2_project_BN", 0, 0, {}]]], "name": "block_2_add"}, {"class_name": "Conv2D", "config": {"kernel_initializer": {"class_name": "VarianceScaling", "config": {"distribution": "uniform", "scale": 1.0, "seed": null, "mode": "fan_avg"}}, "name": "block_3_expand", "kernel_constraint": null, "bias_regularizer": null, "bias_constraint": null, "activation": "linear", "trainable": true, "data_format": "channels_last", "padding": "same", "strides": [1, 1], "dilation_rate": [1, 1], "kernel_regularizer": null, "filters": 144, "bias_initializer": {"class_name": "Zeros", "config": {}}, "use_bias": false, "activity_regularizer": null, "kernel_size": [1, 1]}, "inbound_nodes": [[["block_2_add", 0, 0, {}]]], "name": "block_3_expand"}, {"class_name": "BatchNormalization", "config": {"beta_constraint": null, "gamma_initializer": {"class_name": "Ones", "config": {}}, "moving_mean_initializer": {"class_name": "Zeros", "config": {}}, "name": "block_3_expand_BN", "epsilon": 0.001, "trainable": true, "moving_variance_initializer": {"class_name": "Ones", "config": {}}, "beta_initializer": {"class_name": "Zeros", "config": {}}, "scale": true, "axis": -1, "gamma_constraint": null, "gamma_regularizer": null, "beta_regularizer": null, "momentum": 0.999, "center": true}, "inbound_nodes": [[["block_3_expand", 0, 0, {}]]], "name": "block_3_expand_BN"}, {"class_name": "ReLU", "config": {"threshold": 0.0, "max_value": 6.0, "trainable": true, "name": "block_3_expand_relu", "negative_slope": 0.0}, "inbound_nodes": [[["block_3_expand_BN", 0, 0, {}]]], "name": "block_3_expand_relu"}, {"class_name": "ZeroPadding2D", "config": {"padding": [[0, 1], [0, 1]], "trainable": true, "name": "block_3_pad", "data_format": "channels_last"}, "inbound_nodes": [[["block_3_expand_relu", 0, 0, {}]]], "name": "block_3_pad"}, {"class_name": "DepthwiseConv2D", "config": {"use_bias": false, "trainable": true, "name": "block_3_depthwise", "bias_regularizer": null, "bias_constraint": null, "activation": "linear", "depth_multiplier": 1, "depthwise_constraint": null, "data_format": "channels_last", "padding": "valid", "strides": [2, 2], "dilation_rate": [1, 1], "depthwise_initializer": {"class_name": "VarianceScaling", "config": {"distribution": "uniform", "scale": 1.0, "seed": null, "mode": "fan_avg"}}, "bias_initializer": {"class_name": "Zeros", "config": {}}, "depthwise_regularizer": null, "activity_regularizer": null, "kernel_size": [3, 3]}, "inbound_nodes": [[["block_3_pad", 0, 0, {}]]], "name": "block_3_depthwise"}, {"class_name": "BatchNormalization", "config": {"beta_constraint": null, "gamma_initializer": {"class_name": "Ones", "config": {}}, "moving_mean_initializer": {"class_name": "Zeros", "config": {}}, "name": "block_3_depthwise_BN", "epsilon": 0.001, "trainable": true, "moving_variance_initializer": {"class_name": "Ones", "config": {}}, "beta_initializer": {"class_name": "Zeros", "config": {}}, "scale": true, "axis": -1, "gamma_constraint": null, "gamma_regularizer": null, "beta_regularizer": null, "momentum": 0.999, "center": true}, "inbound_nodes": [[["block_3_depthwise", 0, 0, {}]]], "name": "block_3_depthwise_BN"}, {"class_name": "ReLU", "config": {"threshold": 0.0, "max_value": 6.0, "trainable": true, "name": "block_3_depthwise_relu", "negative_slope": 0.0}, "inbound_nodes": [[["block_3_depthwise_BN", 0, 0, {}]]], "name": "block_3_depthwise_relu"}, {"class_name": "Conv2D", "config": {"kernel_initializer": {"class_name": "VarianceScaling", "config": {"distribution": "uniform", "scale": 1.0, "seed": null, "mode": "fan_avg"}}, "name": "block_3_project", "kernel_constraint": null, "bias_regularizer": null, "bias_constraint": null, "activation": "linear", "trainable": true, "data_format": "channels_last", "padding": "same", "strides": [1, 1], "dilation_rate": [1, 1], "kernel_regularizer": null, "filters": 32, "bias_initializer": {"class_name": "Zeros", "config": {}}, "use_bias": false, "activity_regularizer": null, "kernel_size": [1, 1]}, "inbound_nodes": [[["block_3_depthwise_relu", 0, 0, {}]]], "name": "block_3_project"}, {"class_name": "BatchNormalization", "config": {"beta_constraint": null, "gamma_initializer": {"class_name": "Ones", "config": {}}, "moving_mean_initializer": {"class_name": "Zeros", "config": {}}, "name": "block_3_project_BN", "epsilon": 0.001, "trainable": true, "moving_variance_initializer": {"class_name": "Ones", "config": {}}, "beta_initializer": {"class_name": "Zeros", "config": {}}, "scale": true, "axis": -1, "gamma_constraint": null, "gamma_regularizer": null, "beta_regularizer": null, "momentum": 0.999, "center": true}, "inbound_nodes": [[["block_3_project", 0, 0, {}]]], "name": "block_3_project_BN"}, {"class_name": "Conv2D", "config": {"kernel_initializer": {"class_name": "VarianceScaling", "config": {"distribution": "uniform", "scale": 1.0, "seed": null, "mode": "fan_avg"}}, "name": "block_4_expand", "kernel_constraint": null, "bias_regularizer": null, "bias_constraint": null, "activation": "linear", "trainable": true, "data_format": "channels_last", "padding": "same", "strides": [1, 1], "dilation_rate": [1, 1], "kernel_regularizer": null, "filters": 192, "bias_initializer": {"class_name": "Zeros", "config": {}}, "use_bias": false, "activity_regularizer": null, "kernel_size": [1, 1]}, "inbound_nodes": [[["block_3_project_BN", 0, 0, {}]]], "name": "block_4_expand"}, {"class_name": "BatchNormalization", "config": {"beta_constraint": null, "gamma_initializer": {"class_name": "Ones", "config": {}}, "moving_mean_initializer": {"class_name": "Zeros", "config": {}}, "name": "block_4_expand_BN", "epsilon": 0.001, "trainable": true, "moving_variance_initializer": {"class_name": "Ones", "config": {}}, "beta_initializer": {"class_name": "Zeros", "config": {}}, "scale": true, "axis": -1, "gamma_constraint": null, "gamma_regularizer": null, "beta_regularizer": null, "momentum": 0.999, "center": true}, "inbound_nodes": [[["block_4_expand", 0, 0, {}]]], "name": "block_4_expand_BN"}, {"class_name": "ReLU", "config": {"threshold": 0.0, "max_value": 6.0, "trainable": true, "name": "block_4_expand_relu", "negative_slope": 0.0}, "inbound_nodes": [[["block_4_expand_BN", 0, 0, {}]]], "name": "block_4_expand_relu"}, {"class_name": "DepthwiseConv2D", "config": {"use_bias": false, "trainable": true, "name": "block_4_depthwise", "bias_regularizer": null, "bias_constraint": null, "activation": "linear", "depth_multiplier": 1, "depthwise_constraint": null, "data_format": "channels_last", "padding": "same", "strides": [1, 1], "dilation_rate": [1, 1], "depthwise_initializer": {"class_name": "VarianceScaling", "config": {"distribution": "uniform", "scale": 1.0, "seed": null, "mode": "fan_avg"}}, "bias_initializer": {"class_name": "Zeros", "config": {}}, "depthwise_regularizer": null, "activity_regularizer": null, "kernel_size": [3, 3]}, "inbound_nodes": [[["block_4_expand_relu", 0, 0, {}]]], "name": "block_4_depthwise"}, {"class_name": "BatchNormalization", "config": {"beta_constraint": null, "gamma_initializer": {"class_name": "Ones", "config": {}}, "moving_mean_initializer": {"class_name": "Zeros", "config": {}}, "name": "block_4_depthwise_BN", "epsilon": 0.001, "trainable": true, "moving_variance_initializer": {"class_name": "Ones", "config": {}}, "beta_initializer": {"class_name": "Zeros", "config": {}}, "scale": true, "axis": -1, "gamma_constraint": null, "gamma_regularizer": null, "beta_regularizer": null, "momentum": 0.999, "center": true}, "inbound_nodes": [[["block_4_depthwise", 0, 0, {}]]], "name": "block_4_depthwise_BN"}, {"class_name": "ReLU", "config": {"threshold": 0.0, "max_value": 6.0, "trainable": true, "name": "block_4_depthwise_relu", "negative_slope": 0.0}, "inbound_nodes": [[["block_4_depthwise_BN", 0, 0, {}]]], "name": "block_4_depthwise_relu"}, {"class_name": "Conv2D", "config": {"kernel_initializer": {"class_name": "VarianceScaling", "config": {"distribution": "uniform", "scale": 1.0, "seed": null, "mode": "fan_avg"}}, "name": "block_4_project", "kernel_constraint": null, "bias_regularizer": null, "bias_constraint": null, "activation": "linear", "trainable": true, "data_format": "channels_last", "padding": "same", "strides": [1, 1], "dilation_rate": [1, 1], "kernel_regularizer": null, "filters": 32, "bias_initializer": {"class_name": "Zeros", "config": {}}, "use_bias": false, "activity_regularizer": null, "kernel_size": [1, 1]}, "inbound_nodes": [[["block_4_depthwise_relu", 0, 0, {}]]], "name": "block_4_project"}, {"class_name": "BatchNormalization", "config": {"beta_constraint": null, "gamma_initializer": {"class_name": "Ones", "config": {}}, "moving_mean_initializer": {"class_name": "Zeros", "config": {}}, "name": "block_4_project_BN", "epsilon": 0.001, "trainable": true, "moving_variance_initializer": {"class_name": "Ones", "config": {}}, "beta_initializer": {"class_name": "Zeros", "config": {}}, "scale": true, "axis": -1, "gamma_constraint": null, "gamma_regularizer": null, "beta_regularizer": null, "momentum": 0.999, "center": true}, "inbound_nodes": [[["block_4_project", 0, 0, {}]]], "name": "block_4_project_BN"}, {"class_name": "Add", "config": {"trainable": true, "name": "block_4_add"}, "inbound_nodes": [[["block_3_project_BN", 0, 0, {}], ["block_4_project_BN", 0, 0, {}]]], "name": "block_4_add"}, {"class_name": "Conv2D", "config": {"kernel_initializer": {"class_name": "VarianceScaling", "config": {"distribution": "uniform", "scale": 1.0, "seed": null, "mode": "fan_avg"}}, "name": "block_5_expand", "kernel_constraint": null, "bias_regularizer": null, "bias_constraint": null, "activation": "linear", "trainable": true, "data_format": "channels_last", "padding": "same", "strides": [1, 1], "dilation_rate": [1, 1], "kernel_regularizer": null, "filters": 192, "bias_initializer": {"class_name": "Zeros", "config": {}}, "use_bias": false, "activity_regularizer": null, "kernel_size": [1, 1]}, "inbound_nodes": [[["block_4_add", 0, 0, {}]]], "name": "block_5_expand"}, {"class_name": "BatchNormalization", "config": {"beta_constraint": null, "gamma_initializer": {"class_name": "Ones", "config": {}}, "moving_mean_initializer": {"class_name": "Zeros", "config": {}}, "name": "block_5_expand_BN", "epsilon": 0.001, "trainable": true, "moving_variance_initializer": {"class_name": "Ones", "config": {}}, "beta_initializer": {"class_name": "Zeros", "config": {}}, "scale": true, "axis": -1, "gamma_constraint": null, "gamma_regularizer": null, "beta_regularizer": null, "momentum": 0.999, "center": true}, "inbound_nodes": [[["block_5_expand", 0, 0, {}]]], "name": "block_5_expand_BN"}, {"class_name": "ReLU", "config": {"threshold": 0.0, "max_value": 6.0, "trainable": true, "name": "block_5_expand_relu", "negative_slope": 0.0}, "inbound_nodes": [[["block_5_expand_BN", 0, 0, {}]]], "name": "block_5_expand_relu"}, {"class_name": "DepthwiseConv2D", "config": {"use_bias": false, "trainable": true, "name": "block_5_depthwise", "bias_regularizer": null, "bias_constraint": null, "activation": "linear", "depth_multiplier": 1, "depthwise_constraint": null, "data_format": "channels_last", "padding": "same", "strides": [1, 1], "dilation_rate": [1, 1], "depthwise_initializer": {"class_name": "VarianceScaling", "config": {"distribution": "uniform", "scale": 1.0, "seed": null, "mode": "fan_avg"}}, "bias_initializer": {"class_name": "Zeros", "config": {}}, "depthwise_regularizer": null, "activity_regularizer": null, "kernel_size": [3, 3]}, "inbound_nodes": [[["block_5_expand_relu", 0, 0, {}]]], "name": "block_5_depthwise"}, {"class_name": "BatchNormalization", "config": {"beta_constraint": null, "gamma_initializer": {"class_name": "Ones", "config": {}}, "moving_mean_initializer": {"class_name": "Zeros", "config": {}}, "name": "block_5_depthwise_BN", "epsilon": 0.001, "trainable": true, "moving_variance_initializer": {"class_name": "Ones", "config": {}}, "beta_initializer": {"class_name": "Zeros", "config": {}}, "scale": true, "axis": -1, "gamma_constraint": null, "gamma_regularizer": null, "beta_regularizer": null, "momentum": 0.999, "center": true}, "inbound_nodes": [[["block_5_depthwise", 0, 0, {}]]], "name": "block_5_depthwise_BN"}, {"class_name": "ReLU", "config": {"threshold": 0.0, "max_value": 6.0, "trainable": true, "name": "block_5_depthwise_relu", "negative_slope": 0.0}, "inbound_nodes": [[["block_5_depthwise_BN", 0, 0, {}]]], "name": "block_5_depthwise_relu"}, {"class_name": "Conv2D", "config": {"kernel_initializer": {"class_name": "VarianceScaling", "config": {"distribution": "uniform", "scale": 1.0, "seed": null, "mode": "fan_avg"}}, "name": "block_5_project", "kernel_constraint": null, "bias_regularizer": null, "bias_constraint": null, "activation": "linear", "trainable": true, "data_format": "channels_last", "padding": "same", "strides": [1, 1], "dilation_rate": [1, 1], "kernel_regularizer": null, "filters": 32, "bias_initializer": {"class_name": "Zeros", "config": {}}, "use_bias": false, "activity_regularizer": null, "kernel_size": [1, 1]}, "inbound_nodes": [[["block_5_depthwise_relu", 0, 0, {}]]], "name": "block_5_project"}, {"class_name": "BatchNormalization", "config": {"beta_constraint": null, "gamma_initializer": {"class_name": "Ones", "config": {}}, "moving_mean_initializer": {"class_name": "Zeros", "config": {}}, "name": "block_5_project_BN", "epsilon": 0.001, "trainable": true, "moving_variance_initializer": {"class_name": "Ones", "config": {}}, "beta_initializer": {"class_name": "Zeros", "config": {}}, "scale": true, "axis": -1, "gamma_constraint": null, "gamma_regularizer": null, "beta_regularizer": null, "momentum": 0.999, "center": true}, "inbound_nodes": [[["block_5_project", 0, 0, {}]]], "name": "block_5_project_BN"}, {"class_name": "Add", "config": {"trainable": true, "name": "block_5_add"}, "inbound_nodes": [[["block_4_add", 0, 0, {}], ["block_5_project_BN", 0, 0, {}]]], "name": "block_5_add"}, {"class_name": "Conv2D", "config": {"kernel_initializer": {"class_name": "VarianceScaling", "config": {"distribution": "uniform", "scale": 1.0, "seed": null, "mode": "fan_avg"}}, "name": "block_6_expand", "kernel_constraint": null, "bias_regularizer": null, "bias_constraint": null, "activation": "linear", "trainable": true, "data_format": "channels_last", "padding": "same", "strides": [1, 1], "dilation_rate": [1, 1], "kernel_regularizer": null, "filters": 192, "bias_initializer": {"class_name": "Zeros", "config": {}}, "use_bias": false, "activity_regularizer": null, "kernel_size": [1, 1]}, "inbound_nodes": [[["block_5_add", 0, 0, {}]]], "name": "block_6_expand"}, {"class_name": "BatchNormalization", "config": {"beta_constraint": null, "gamma_initializer": {"class_name": "Ones", "config": {}}, "moving_mean_initializer": {"class_name": "Zeros", "config": {}}, "name": "block_6_expand_BN", "epsilon": 0.001, "trainable": true, "moving_variance_initializer": {"class_name": "Ones", "config": {}}, "beta_initializer": {"class_name": "Zeros", "config": {}}, "scale": true, "axis": -1, "gamma_constraint": null, "gamma_regularizer": null, "beta_regularizer": null, "momentum": 0.999, "center": true}, "inbound_nodes": [[["block_6_expand", 0, 0, {}]]], "name": "block_6_expand_BN"}, {"class_name": "ReLU", "config": {"threshold": 0.0, "max_value": 6.0, "trainable": true, "name": "block_6_expand_relu", "negative_slope": 0.0}, "inbound_nodes": [[["block_6_expand_BN", 0, 0, {}]]], "name": "block_6_expand_relu"}, {"class_name": "ZeroPadding2D", "config": {"padding": [[0, 1], [0, 1]], "trainable": true, "name": "block_6_pad", "data_format": "channels_last"}, "inbound_nodes": [[["block_6_expand_relu", 0, 0, {}]]], "name": "block_6_pad"}, {"class_name": "DepthwiseConv2D", "config": {"use_bias": false, "trainable": true, "name": "block_6_depthwise", "bias_regularizer": null, "bias_constraint": null, "activation": "linear", "depth_multiplier": 1, "depthwise_constraint": null, "data_format": "channels_last", "padding": "valid", "strides": [2, 2], "dilation_rate": [1, 1], "depthwise_initializer": {"class_name": "VarianceScaling", "config": {"distribution": "uniform", "scale": 1.0, "seed": null, "mode": "fan_avg"}}, "bias_initializer": {"class_name": "Zeros", "config": {}}, "depthwise_regularizer": null, "activity_regularizer": null, "kernel_size": [3, 3]}, "inbound_nodes": [[["block_6_pad", 0, 0, {}]]], "name": "block_6_depthwise"}, {"class_name": "BatchNormalization", "config": {"beta_constraint": null, "gamma_initializer": {"class_name": "Ones", "config": {}}, "moving_mean_initializer": {"class_name": "Zeros", "config": {}}, "name": "block_6_depthwise_BN", "epsilon": 0.001, "trainable": true, "moving_variance_initializer": {"class_name": "Ones", "config": {}}, "beta_initializer": {"class_name": "Zeros", "config": {}}, "scale": true, "axis": -1, "gamma_constraint": null, "gamma_regularizer": null, "beta_regularizer": null, "momentum": 0.999, "center": true}, "inbound_nodes": [[["block_6_depthwise", 0, 0, {}]]], "name": "block_6_depthwise_BN"}, {"class_name": "ReLU", "config": {"threshold": 0.0, "max_value": 6.0, "trainable": true, "name": "block_6_depthwise_relu", "negative_slope": 0.0}, "inbound_nodes": [[["block_6_depthwise_BN", 0, 0, {}]]], "name": "block_6_depthwise_relu"}, {"class_name": "Conv2D", "config": {"kernel_initializer": {"class_name": "VarianceScaling", "config": {"distribution": "uniform", "scale": 1.0, "seed": null, "mode": "fan_avg"}}, "name": "block_6_project", "kernel_constraint": null, "bias_regularizer": null, "bias_constraint": null, "activation": "linear", "trainable": true, "data_format": "channels_last", "padding": "same", "strides": [1, 1], "dilation_rate": [1, 1], "kernel_regularizer": null, "filters": 64, "bias_initializer": {"class_name": "Zeros", "config": {}}, "use_bias": false, "activity_regularizer": null, "kernel_size": [1, 1]}, "inbound_nodes": [[["block_6_depthwise_relu", 0, 0, {}]]], "name": "block_6_project"}, {"class_name": "BatchNormalization", "config": {"beta_constraint": null, "gamma_initializer": {"class_name": "Ones", "config": {}}, "moving_mean_initializer": {"class_name": "Zeros", "config": {}}, "name": "block_6_project_BN", "epsilon": 0.001, "trainable": true, "moving_variance_initializer": {"class_name": "Ones", "config": {}}, "beta_initializer": {"class_name": "Zeros", "config": {}}, "scale": true, "axis": -1, "gamma_constraint": null, "gamma_regularizer": null, "beta_regularizer": null, "momentum": 0.999, "center": true}, "inbound_nodes": [[["block_6_project", 0, 0, {}]]], "name": "block_6_project_BN"}, {"class_name": "Conv2D", "config": {"kernel_initializer": {"class_name": "VarianceScaling", "config": {"distribution": "uniform", "scale": 1.0, "seed": null, "mode": "fan_avg"}}, "name": "block_7_expand", "kernel_constraint": null, "bias_regularizer": null, "bias_constraint": null, "activation": "linear", "trainable": true, "data_format": "channels_last", "padding": "same", "strides": [1, 1], "dilation_rate": [1, 1], "kernel_regularizer": null, "filters": 384, "bias_initializer": {"class_name": "Zeros", "config": {}}, "use_bias": false, "activity_regularizer": null, "kernel_size": [1, 1]}, "inbound_nodes": [[["block_6_project_BN", 0, 0, {}]]], "name": "block_7_expand"}, {"class_name": "BatchNormalization", "config": {"beta_constraint": null, "gamma_initializer": {"class_name": "Ones", "config": {}}, "moving_mean_initializer": {"class_name": "Zeros", "config": {}}, "name": "block_7_expand_BN", "epsilon": 0.001, "trainable": true, "moving_variance_initializer": {"class_name": "Ones", "config": {}}, "beta_initializer": {"class_name": "Zeros", "config": {}}, "scale": true, "axis": -1, "gamma_constraint": null, "gamma_regularizer": null, "beta_regularizer": null, "momentum": 0.999, "center": true}, "inbound_nodes": [[["block_7_expand", 0, 0, {}]]], "name": "block_7_expand_BN"}, {"class_name": "ReLU", "config": {"threshold": 0.0, "max_value": 6.0, "trainable": true, "name": "block_7_expand_relu", "negative_slope": 0.0}, "inbound_nodes": [[["block_7_expand_BN", 0, 0, {}]]], "name": "block_7_expand_relu"}, {"class_name": "DepthwiseConv2D", "config": {"use_bias": false, "trainable": true, "name": "block_7_depthwise", "bias_regularizer": null, "bias_constraint": null, "activation": "linear", "depth_multiplier": 1, "depthwise_constraint": null, "data_format": "channels_last", "padding": "same", "strides": [1, 1], "dilation_rate": [1, 1], "depthwise_initializer": {"class_name": "VarianceScaling", "config": {"distribution": "uniform", "scale": 1.0, "seed": null, "mode": "fan_avg"}}, "bias_initializer": {"class_name": "Zeros", "config": {}}, "depthwise_regularizer": null, "activity_regularizer": null, "kernel_size": [3, 3]}, "inbound_nodes": [[["block_7_expand_relu", 0, 0, {}]]], "name": "block_7_depthwise"}, {"class_name": "BatchNormalization", "config": {"beta_constraint": null, "gamma_initializer": {"class_name": "Ones", "config": {}}, "moving_mean_initializer": {"class_name": "Zeros", "config": {}}, "name": "block_7_depthwise_BN", "epsilon": 0.001, "trainable": true, "moving_variance_initializer": {"class_name": "Ones", "config": {}}, "beta_initializer": {"class_name": "Zeros", "config": {}}, "scale": true, "axis": -1, "gamma_constraint": null, "gamma_regularizer": null, "beta_regularizer": null, "momentum": 0.999, "center": true}, "inbound_nodes": [[["block_7_depthwise", 0, 0, {}]]], "name": "block_7_depthwise_BN"}, {"class_name": "ReLU", "config": {"threshold": 0.0, "max_value": 6.0, "trainable": true, "name": "block_7_depthwise_relu", "negative_slope": 0.0}, "inbound_nodes": [[["block_7_depthwise_BN", 0, 0, {}]]], "name": "block_7_depthwise_relu"}, {"class_name": "Conv2D", "config": {"kernel_initializer": {"class_name": "VarianceScaling", "config": {"distribution": "uniform", "scale": 1.0, "seed": null, "mode": "fan_avg"}}, "name": "block_7_project", "kernel_constraint": null, "bias_regularizer": null, "bias_constraint": null, "activation": "linear", "trainable": true, "data_format": "channels_last", "padding": "same", "strides": [1, 1], "dilation_rate": [1, 1], "kernel_regularizer": null, "filters": 64, "bias_initializer": {"class_name": "Zeros", "config": {}}, "use_bias": false, "activity_regularizer": null, "kernel_size": [1, 1]}, "inbound_nodes": [[["block_7_depthwise_relu", 0, 0, {}]]], "name": "block_7_project"}, {"class_name": "BatchNormalization", "config": {"beta_constraint": null, "gamma_initializer": {"class_name": "Ones", "config": {}}, "moving_mean_initializer": {"class_name": "Zeros", "config": {}}, "name": "block_7_project_BN", "epsilon": 0.001, "trainable": true, "moving_variance_initializer": {"class_name": "Ones", "config": {}}, "beta_initializer": {"class_name": "Zeros", "config": {}}, "scale": true, "axis": -1, "gamma_constraint": null, "gamma_regularizer": null, "beta_regularizer": null, "momentum": 0.999, "center": true}, "inbound_nodes": [[["block_7_project", 0, 0, {}]]], "name": "block_7_project_BN"}, {"class_name": "Add", "config": {"trainable": true, "name": "block_7_add"}, "inbound_nodes": [[["block_6_project_BN", 0, 0, {}], ["block_7_project_BN", 0, 0, {}]]], "name": "block_7_add"}, {"class_name": "Conv2D", "config": {"kernel_initializer": {"class_name": "VarianceScaling", "config": {"distribution": "uniform", "scale": 1.0, "seed": null, "mode": "fan_avg"}}, "name": "block_8_expand", "kernel_constraint": null, "bias_regularizer": null, "bias_constraint": null, "activation": "linear", "trainable": true, "data_format": "channels_last", "padding": "same", "strides": [1, 1], "dilation_rate": [1, 1], "kernel_regularizer": null, "filters": 384, "bias_initializer": {"class_name": "Zeros", "config": {}}, "use_bias": false, "activity_regularizer": null, "kernel_size": [1, 1]}, "inbound_nodes": [[["block_7_add", 0, 0, {}]]], "name": "block_8_expand"}, {"class_name": "BatchNormalization", "config": {"beta_constraint": null, "gamma_initializer": {"class_name": "Ones", "config": {}}, "moving_mean_initializer": {"class_name": "Zeros", "config": {}}, "name": "block_8_expand_BN", "epsilon": 0.001, "trainable": true, "moving_variance_initializer": {"class_name": "Ones", "config": {}}, "beta_initializer": {"class_name": "Zeros", "config": {}}, "scale": true, "axis": -1, "gamma_constraint": null, "gamma_regularizer": null, "beta_regularizer": null, "momentum": 0.999, "center": true}, "inbound_nodes": [[["block_8_expand", 0, 0, {}]]], "name": "block_8_expand_BN"}, {"class_name": "ReLU", "config": {"threshold": 0.0, "max_value": 6.0, "trainable": true, "name": "block_8_expand_relu", "negative_slope": 0.0}, "inbound_nodes": [[["block_8_expand_BN", 0, 0, {}]]], "name": "block_8_expand_relu"}, {"class_name": "DepthwiseConv2D", "config": {"use_bias": false, "trainable": true, "name": "block_8_depthwise", "bias_regularizer": null, "bias_constraint": null, "activation": "linear", "depth_multiplier": 1, "depthwise_constraint": null, "data_format": "channels_last", "padding": "same", "strides": [1, 1], "dilation_rate": [1, 1], "depthwise_initializer": {"class_name": "VarianceScaling", "config": {"distribution": "uniform", "scale": 1.0, "seed": null, "mode": "fan_avg"}}, "bias_initializer": {"class_name": "Zeros", "config": {}}, "depthwise_regularizer": null, "activity_regularizer": null, "kernel_size": [3, 3]}, "inbound_nodes": [[["block_8_expand_relu", 0, 0, {}]]], "name": "block_8_depthwise"}, {"class_name": "BatchNormalization", "config": {"beta_constraint": null, "gamma_initializer": {"class_name": "Ones", "config": {}}, "moving_mean_initializer": {"class_name": "Zeros", "config": {}}, "name": "block_8_depthwise_BN", "epsilon": 0.001, "trainable": true, "moving_variance_initializer": {"class_name": "Ones", "config": {}}, "beta_initializer": {"class_name": "Zeros", "config": {}}, "scale": true, "axis": -1, "gamma_constraint": null, "gamma_regularizer": null, "beta_regularizer": null, "momentum": 0.999, "center": true}, "inbound_nodes": [[["block_8_depthwise", 0, 0, {}]]], "name": "block_8_depthwise_BN"}, {"class_name": "ReLU", "config": {"threshold": 0.0, "max_value": 6.0, "trainable": true, "name": "block_8_depthwise_relu", "negative_slope": 0.0}, "inbound_nodes": [[["block_8_depthwise_BN", 0, 0, {}]]], "name": "block_8_depthwise_relu"}, {"class_name": "Conv2D", "config": {"kernel_initializer": {"class_name": "VarianceScaling", "config": {"distribution": "uniform", "scale": 1.0, "seed": null, "mode": "fan_avg"}}, "name": "block_8_project", "kernel_constraint": null, "bias_regularizer": null, "bias_constraint": null, "activation": "linear", "trainable": true, "data_format": "channels_last", "padding": "same", "strides": [1, 1], "dilation_rate": [1, 1], "kernel_regularizer": null, "filters": 64, "bias_initializer": {"class_name": "Zeros", "config": {}}, "use_bias": false, "activity_regularizer": null, "kernel_size": [1, 1]}, "inbound_nodes": [[["block_8_depthwise_relu", 0, 0, {}]]], "name": "block_8_project"}, {"class_name": "BatchNormalization", "config": {"beta_constraint": null, "gamma_initializer": {"class_name": "Ones", "config": {}}, "moving_mean_initializer": {"class_name": "Zeros", "config": {}}, "name": "block_8_project_BN", "epsilon": 0.001, "trainable": true, "moving_variance_initializer": {"class_name": "Ones", "config": {}}, "beta_initializer": {"class_name": "Zeros", "config": {}}, "scale": true, "axis": -1, "gamma_constraint": null, "gamma_regularizer": null, "beta_regularizer": null, "momentum": 0.999, "center": true}, "inbound_nodes": [[["block_8_project", 0, 0, {}]]], "name": "block_8_project_BN"}, {"class_name": "Add", "config": {"trainable": true, "name": "block_8_add"}, "inbound_nodes": [[["block_7_add", 0, 0, {}], ["block_8_project_BN", 0, 0, {}]]], "name": "block_8_add"}, {"class_name": "Conv2D", "config": {"kernel_initializer": {"class_name": "VarianceScaling", "config": {"distribution": "uniform", "scale": 1.0, "seed": null, "mode": "fan_avg"}}, "name": "block_9_expand", "kernel_constraint": null, "bias_regularizer": null, "bias_constraint": null, "activation": "linear", "trainable": true, "data_format": "channels_last", "padding": "same", "strides": [1, 1], "dilation_rate": [1, 1], "kernel_regularizer": null, "filters": 384, "bias_initializer": {"class_name": "Zeros", "config": {}}, "use_bias": false, "activity_regularizer": null, "kernel_size": [1, 1]}, "inbound_nodes": [[["block_8_add", 0, 0, {}]]], "name": "block_9_expand"}, {"class_name": "BatchNormalization", "config": {"beta_constraint": null, "gamma_initializer": {"class_name": "Ones", "config": {}}, "moving_mean_initializer": {"class_name": "Zeros", "config": {}}, "name": "block_9_expand_BN", "epsilon": 0.001, "trainable": true, "moving_variance_initializer": {"class_name": "Ones", "config": {}}, "beta_initializer": {"class_name": "Zeros", "config": {}}, "scale": true, "axis": -1, "gamma_constraint": null, "gamma_regularizer": null, "beta_regularizer": null, "momentum": 0.999, "center": true}, "inbound_nodes": [[["block_9_expand", 0, 0, {}]]], "name": "block_9_expand_BN"}, {"class_name": "ReLU", "config": {"threshold": 0.0, "max_value": 6.0, "trainable": true, "name": "block_9_expand_relu", "negative_slope": 0.0}, "inbound_nodes": [[["block_9_expand_BN", 0, 0, {}]]], "name": "block_9_expand_relu"}, {"class_name": "DepthwiseConv2D", "config": {"use_bias": false, "trainable": true, "name": "block_9_depthwise", "bias_regularizer": null, "bias_constraint": null, "activation": "linear", "depth_multiplier": 1, "depthwise_constraint": null, "data_format": "channels_last", "padding": "same", "strides": [1, 1], "dilation_rate": [1, 1], "depthwise_initializer": {"class_name": "VarianceScaling", "config": {"distribution": "uniform", "scale": 1.0, "seed": null, "mode": "fan_avg"}}, "bias_initializer": {"class_name": "Zeros", "config": {}}, "depthwise_regularizer": null, "activity_regularizer": null, "kernel_size": [3, 3]}, "inbound_nodes": [[["block_9_expand_relu", 0, 0, {}]]], "name": "block_9_depthwise"}, {"class_name": "BatchNormalization", "config": {"beta_constraint": null, "gamma_initializer": {"class_name": "Ones", "config": {}}, "moving_mean_initializer": {"class_name": "Zeros", "config": {}}, "name": "block_9_depthwise_BN", "epsilon": 0.001, "trainable": true, "moving_variance_initializer": {"class_name": "Ones", "config": {}}, "beta_initializer": {"class_name": "Zeros", "config": {}}, "scale": true, "axis": -1, "gamma_constraint": null, "gamma_regularizer": null, "beta_regularizer": null, "momentum": 0.999, "center": true}, "inbound_nodes": [[["block_9_depthwise", 0, 0, {}]]], "name": "block_9_depthwise_BN"}, {"class_name": "ReLU", "config": {"threshold": 0.0, "max_value": 6.0, "trainable": true, "name": "block_9_depthwise_relu", "negative_slope": 0.0}, "inbound_nodes": [[["block_9_depthwise_BN", 0, 0, {}]]], "name": "block_9_depthwise_relu"}, {"class_name": "Conv2D", "config": {"kernel_initializer": {"class_name": "VarianceScaling", "config": {"distribution": "uniform", "scale": 1.0, "seed": null, "mode": "fan_avg"}}, "name": "block_9_project", "kernel_constraint": null, "bias_regularizer": null, "bias_constraint": null, "activation": "linear", "trainable": true, "data_format": "channels_last", "padding": "same", "strides": [1, 1], "dilation_rate": [1, 1], "kernel_regularizer": null, "filters": 64, "bias_initializer": {"class_name": "Zeros", "config": {}}, "use_bias": false, "activity_regularizer": null, "kernel_size": [1, 1]}, "inbound_nodes": [[["block_9_depthwise_relu", 0, 0, {}]]], "name": "block_9_project"}, {"class_name": "BatchNormalization", "config": {"beta_constraint": null, "gamma_initializer": {"class_name": "Ones", "config": {}}, "moving_mean_initializer": {"class_name": "Zeros", "config": {}}, "name": "block_9_project_BN", "epsilon": 0.001, "trainable": true, "moving_variance_initializer": {"class_name": "Ones", "config": {}}, "beta_initializer": {"class_name": "Zeros", "config": {}}, "scale": true, "axis": -1, "gamma_constraint": null, "gamma_regularizer": null, "beta_regularizer": null, "momentum": 0.999, "center": true}, "inbound_nodes": [[["block_9_project", 0, 0, {}]]], "name": "block_9_project_BN"}, {"class_name": "Add", "config": {"trainable": true, "name": "block_9_add"}, "inbound_nodes": [[["block_8_add", 0, 0, {}], ["block_9_project_BN", 0, 0, {}]]], "name": "block_9_add"}, {"class_name": "Conv2D", "config": {"kernel_initializer": {"class_name": "VarianceScaling", "config": {"distribution": "uniform", "scale": 1.0, "seed": null, "mode": "fan_avg"}}, "name": "block_10_expand", "kernel_constraint": null, "bias_regularizer": null, "bias_constraint": null, "activation": "linear", "trainable": true, "data_format": "channels_last", "padding": "same", "strides": [1, 1], "dilation_rate": [1, 1], "kernel_regularizer": null, "filters": 384, "bias_initializer": {"class_name": "Zeros", "config": {}}, "use_bias": false, "activity_regularizer": null, "kernel_size": [1, 1]}, "inbound_nodes": [[["block_9_add", 0, 0, {}]]], "name": "block_10_expand"}, {"class_name": "BatchNormalization", "config": {"beta_constraint": null, "gamma_initializer": {"class_name": "Ones", "config": {}}, "moving_mean_initializer": {"class_name": "Zeros", "config": {}}, "name": "block_10_expand_BN", "epsilon": 0.001, "trainable": true, "moving_variance_initializer": {"class_name": "Ones", "config": {}}, "beta_initializer": {"class_name": "Zeros", "config": {}}, "scale": true, "axis": -1, "gamma_constraint": null, "gamma_regularizer": null, "beta_regularizer": null, "momentum": 0.999, "center": true}, "inbound_nodes": [[["block_10_expand", 0, 0, {}]]], "name": "block_10_expand_BN"}, {"class_name": "ReLU", "config": {"threshold": 0.0, "max_value": 6.0, "trainable": true, "name": "block_10_expand_relu", "negative_slope": 0.0}, "inbound_nodes": [[["block_10_expand_BN", 0, 0, {}]]], "name": "block_10_expand_relu"}, {"class_name": "DepthwiseConv2D", "config": {"use_bias": false, "trainable": true, "name": "block_10_depthwise", "bias_regularizer": null, "bias_constraint": null, "activation": "linear", "depth_multiplier": 1, "depthwise_constraint": null, "data_format": "channels_last", "padding": "same", "strides": [1, 1], "dilation_rate": [1, 1], "depthwise_initializer": {"class_name": "VarianceScaling", "config": {"distribution": "uniform", "scale": 1.0, "seed": null, "mode": "fan_avg"}}, "bias_initializer": {"class_name": "Zeros", "config": {}}, "depthwise_regularizer": null, "activity_regularizer": null, "kernel_size": [3, 3]}, "inbound_nodes": [[["block_10_expand_relu", 0, 0, {}]]], "name": "block_10_depthwise"}, {"class_name": "BatchNormalization", "config": {"beta_constraint": null, "gamma_initializer": {"class_name": "Ones", "config": {}}, "moving_mean_initializer": {"class_name": "Zeros", "config": {}}, "name": "block_10_depthwise_BN", "epsilon": 0.001, "trainable": true, "moving_variance_initializer": {"class_name": "Ones", "config": {}}, "beta_initializer": {"class_name": "Zeros", "config": {}}, "scale": true, "axis": -1, "gamma_constraint": null, "gamma_regularizer": null, "beta_regularizer": null, "momentum": 0.999, "center": true}, "inbound_nodes": [[["block_10_depthwise", 0, 0, {}]]], "name": "block_10_depthwise_BN"}, {"class_name": "ReLU", "config": {"threshold": 0.0, "max_value": 6.0, "trainable": true, "name": "block_10_depthwise_relu", "negative_slope": 0.0}, "inbound_nodes": [[["block_10_depthwise_BN", 0, 0, {}]]], "name": "block_10_depthwise_relu"}, {"class_name": "Conv2D", "config": {"kernel_initializer": {"class_name": "VarianceScaling", "config": {"distribution": "uniform", "scale": 1.0, "seed": null, "mode": "fan_avg"}}, "name": "block_10_project", "kernel_constraint": null, "bias_regularizer": null, "bias_constraint": null, "activation": "linear", "trainable": true, "data_format": "channels_last", "padding": "same", "strides": [1, 1], "dilation_rate": [1, 1], "kernel_regularizer": null, "filters": 96, "bias_initializer": {"class_name": "Zeros", "config": {}}, "use_bias": false, "activity_regularizer": null, "kernel_size": [1, 1]}, "inbound_nodes": [[["block_10_depthwise_relu", 0, 0, {}]]], "name": "block_10_project"}, {"class_name": "BatchNormalization", "config": {"beta_constraint": null, "gamma_initializer": {"class_name": "Ones", "config": {}}, "moving_mean_initializer": {"class_name": "Zeros", "config": {}}, "name": "block_10_project_BN", "epsilon": 0.001, "trainable": true, "moving_variance_initializer": {"class_name": "Ones", "config": {}}, "beta_initializer": {"class_name": "Zeros", "config": {}}, "scale": true, "axis": -1, "gamma_constraint": null, "gamma_regularizer": null, "beta_regularizer": null, "momentum": 0.999, "center": true}, "inbound_nodes": [[["block_10_project", 0, 0, {}]]], "name": "block_10_project_BN"}, {"class_name": "Conv2D", "config": {"kernel_initializer": {"class_name": "VarianceScaling", "config": {"distribution": "uniform", "scale": 1.0, "seed": null, "mode": "fan_avg"}}, "name": "block_11_expand", "kernel_constraint": null, "bias_regularizer": null, "bias_constraint": null, "activation": "linear", "trainable": true, "data_format": "channels_last", "padding": "same", "strides": [1, 1], "dilation_rate": [1, 1], "kernel_regularizer": null, "filters": 576, "bias_initializer": {"class_name": "Zeros", "config": {}}, "use_bias": false, "activity_regularizer": null, "kernel_size": [1, 1]}, "inbound_nodes": [[["block_10_project_BN", 0, 0, {}]]], "name": "block_11_expand"}, {"class_name": "BatchNormalization", "config": {"beta_constraint": null, "gamma_initializer": {"class_name": "Ones", "config": {}}, "moving_mean_initializer": {"class_name": "Zeros", "config": {}}, "name": "block_11_expand_BN", "epsilon": 0.001, "trainable": true, "moving_variance_initializer": {"class_name": "Ones", "config": {}}, "beta_initializer": {"class_name": "Zeros", "config": {}}, "scale": true, "axis": -1, "gamma_constraint": null, "gamma_regularizer": null, "beta_regularizer": null, "momentum": 0.999, "center": true}, "inbound_nodes": [[["block_11_expand", 0, 0, {}]]], "name": "block_11_expand_BN"}, {"class_name": "ReLU", "config": {"threshold": 0.0, "max_value": 6.0, "trainable": true, "name": "block_11_expand_relu", "negative_slope": 0.0}, "inbound_nodes": [[["block_11_expand_BN", 0, 0, {}]]], "name": "block_11_expand_relu"}, {"class_name": "DepthwiseConv2D", "config": {"use_bias": false, "trainable": true, "name": "block_11_depthwise", "bias_regularizer": null, "bias_constraint": null, "activation": "linear", "depth_multiplier": 1, "depthwise_constraint": null, "data_format": "channels_last", "padding": "same", "strides": [1, 1], "dilation_rate": [1, 1], "depthwise_initializer": {"class_name": "VarianceScaling", "config": {"distribution": "uniform", "scale": 1.0, "seed": null, "mode": "fan_avg"}}, "bias_initializer": {"class_name": "Zeros", "config": {}}, "depthwise_regularizer": null, "activity_regularizer": null, "kernel_size": [3, 3]}, "inbound_nodes": [[["block_11_expand_relu", 0, 0, {}]]], "name": "block_11_depthwise"}, {"class_name": "BatchNormalization", "config": {"beta_constraint": null, "gamma_initializer": {"class_name": "Ones", "config": {}}, "moving_mean_initializer": {"class_name": "Zeros", "config": {}}, "name": "block_11_depthwise_BN", "epsilon": 0.001, "trainable": true, "moving_variance_initializer": {"class_name": "Ones", "config": {}}, "beta_initializer": {"class_name": "Zeros", "config": {}}, "scale": true, "axis": -1, "gamma_constraint": null, "gamma_regularizer": null, "beta_regularizer": null, "momentum": 0.999, "center": true}, "inbound_nodes": [[["block_11_depthwise", 0, 0, {}]]], "name": "block_11_depthwise_BN"}, {"class_name": "ReLU", "config": {"threshold": 0.0, "max_value": 6.0, "trainable": true, "name": "block_11_depthwise_relu", "negative_slope": 0.0}, "inbound_nodes": [[["block_11_depthwise_BN", 0, 0, {}]]], "name": "block_11_depthwise_relu"}, {"class_name": "Conv2D", "config": {"kernel_initializer": {"class_name": "VarianceScaling", "config": {"distribution": "uniform", "scale": 1.0, "seed": null, "mode": "fan_avg"}}, "name": "block_11_project", "kernel_constraint": null, "bias_regularizer": null, "bias_constraint": null, "activation": "linear", "trainable": true, "data_format": "channels_last", "padding": "same", "strides": [1, 1], "dilation_rate": [1, 1], "kernel_regularizer": null, "filters": 96, "bias_initializer": {"class_name": "Zeros", "config": {}}, "use_bias": false, "activity_regularizer": null, "kernel_size": [1, 1]}, "inbound_nodes": [[["block_11_depthwise_relu", 0, 0, {}]]], "name": "block_11_project"}, {"class_name": "BatchNormalization", "config": {"beta_constraint": null, "gamma_initializer": {"class_name": "Ones", "config": {}}, "moving_mean_initializer": {"class_name": "Zeros", "config": {}}, "name": "block_11_project_BN", "epsilon": 0.001, "trainable": true, "moving_variance_initializer": {"class_name": "Ones", "config": {}}, "beta_initializer": {"class_name": "Zeros", "config": {}}, "scale": true, "axis": -1, "gamma_constraint": null, "gamma_regularizer": null, "beta_regularizer": null, "momentum": 0.999, "center": true}, "inbound_nodes": [[["block_11_project", 0, 0, {}]]], "name": "block_11_project_BN"}, {"class_name": "Add", "config": {"trainable": true, "name": "block_11_add"}, "inbound_nodes": [[["block_10_project_BN", 0, 0, {}], ["block_11_project_BN", 0, 0, {}]]], "name": "block_11_add"}, {"class_name": "Conv2D", "config": {"kernel_initializer": {"class_name": "VarianceScaling", "config": {"distribution": "uniform", "scale": 1.0, "seed": null, "mode": "fan_avg"}}, "name": "block_12_expand", "kernel_constraint": null, "bias_regularizer": null, "bias_constraint": null, "activation": "linear", "trainable": true, "data_format": "channels_last", "padding": "same", "strides": [1, 1], "dilation_rate": [1, 1], "kernel_regularizer": null, "filters": 576, "bias_initializer": {"class_name": "Zeros", "config": {}}, "use_bias": false, "activity_regularizer": null, "kernel_size": [1, 1]}, "inbound_nodes": [[["block_11_add", 0, 0, {}]]], "name": "block_12_expand"}, {"class_name": "BatchNormalization", "config": {"beta_constraint": null, "gamma_initializer": {"class_name": "Ones", "config": {}}, "moving_mean_initializer": {"class_name": "Zeros", "config": {}}, "name": "block_12_expand_BN", "epsilon": 0.001, "trainable": true, "moving_variance_initializer": {"class_name": "Ones", "config": {}}, "beta_initializer": {"class_name": "Zeros", "config": {}}, "scale": true, "axis": -1, "gamma_constraint": null, "gamma_regularizer": null, "beta_regularizer": null, "momentum": 0.999, "center": true}, "inbound_nodes": [[["block_12_expand", 0, 0, {}]]], "name": "block_12_expand_BN"}, {"class_name": "ReLU", "config": {"threshold": 0.0, "max_value": 6.0, "trainable": true, "name": "block_12_expand_relu", "negative_slope": 0.0}, "inbound_nodes": [[["block_12_expand_BN", 0, 0, {}]]], "name": "block_12_expand_relu"}, {"class_name": "DepthwiseConv2D", "config": {"use_bias": false, "trainable": true, "name": "block_12_depthwise", "bias_regularizer": null, "bias_constraint": null, "activation": "linear", "depth_multiplier": 1, "depthwise_constraint": null, "data_format": "channels_last", "padding": "same", "strides": [1, 1], "dilation_rate": [1, 1], "depthwise_initializer": {"class_name": "VarianceScaling", "config": {"distribution": "uniform", "scale": 1.0, "seed": null, "mode": "fan_avg"}}, "bias_initializer": {"class_name": "Zeros", "config": {}}, "depthwise_regularizer": null, "activity_regularizer": null, "kernel_size": [3, 3]}, "inbound_nodes": [[["block_12_expand_relu", 0, 0, {}]]], "name": "block_12_depthwise"}, {"class_name": "BatchNormalization", "config": {"beta_constraint": null, "gamma_initializer": {"class_name": "Ones", "config": {}}, "moving_mean_initializer": {"class_name": "Zeros", "config": {}}, "name": "block_12_depthwise_BN", "epsilon": 0.001, "trainable": true, "moving_variance_initializer": {"class_name": "Ones", "config": {}}, "beta_initializer": {"class_name": "Zeros", "config": {}}, "scale": true, "axis": -1, "gamma_constraint": null, "gamma_regularizer": null, "beta_regularizer": null, "momentum": 0.999, "center": true}, "inbound_nodes": [[["block_12_depthwise", 0, 0, {}]]], "name": "block_12_depthwise_BN"}, {"class_name": "ReLU", "config": {"threshold": 0.0, "max_value": 6.0, "trainable": true, "name": "block_12_depthwise_relu", "negative_slope": 0.0}, "inbound_nodes": [[["block_12_depthwise_BN", 0, 0, {}]]], "name": "block_12_depthwise_relu"}, {"class_name": "Conv2D", "config": {"kernel_initializer": {"class_name": "VarianceScaling", "config": {"distribution": "uniform", "scale": 1.0, "seed": null, "mode": "fan_avg"}}, "name": "block_12_project", "kernel_constraint": null, "bias_regularizer": null, "bias_constraint": null, "activation": "linear", "trainable": true, "data_format": "channels_last", "padding": "same", "strides": [1, 1], "dilation_rate": [1, 1], "kernel_regularizer": null, "filters": 96, "bias_initializer": {"class_name": "Zeros", "config": {}}, "use_bias": false, "activity_regularizer": null, "kernel_size": [1, 1]}, "inbound_nodes": [[["block_12_depthwise_relu", 0, 0, {}]]], "name": "block_12_project"}, {"class_name": "BatchNormalization", "config": {"beta_constraint": null, "gamma_initializer": {"class_name": "Ones", "config": {}}, "moving_mean_initializer": {"class_name": "Zeros", "config": {}}, "name": "block_12_project_BN", "epsilon": 0.001, "trainable": true, "moving_variance_initializer": {"class_name": "Ones", "config": {}}, "beta_initializer": {"class_name": "Zeros", "config": {}}, "scale": true, "axis": -1, "gamma_constraint": null, "gamma_regularizer": null, "beta_regularizer": null, "momentum": 0.999, "center": true}, "inbound_nodes": [[["block_12_project", 0, 0, {}]]], "name": "block_12_project_BN"}, {"class_name": "Add", "config": {"trainable": true, "name": "block_12_add"}, "inbound_nodes": [[["block_11_add", 0, 0, {}], ["block_12_project_BN", 0, 0, {}]]], "name": "block_12_add"}, {"class_name": "Conv2D", "config": {"kernel_initializer": {"class_name": "VarianceScaling", "config": {"distribution": "uniform", "scale": 1.0, "seed": null, "mode": "fan_avg"}}, "name": "block_13_expand", "kernel_constraint": null, "bias_regularizer": null, "bias_constraint": null, "activation": "linear", "trainable": true, "data_format": "channels_last", "padding": "same", "strides": [1, 1], "dilation_rate": [1, 1], "kernel_regularizer": null, "filters": 576, "bias_initializer": {"class_name": "Zeros", "config": {}}, "use_bias": false, "activity_regularizer": null, "kernel_size": [1, 1]}, "inbound_nodes": [[["block_12_add", 0, 0, {}]]], "name": "block_13_expand"}, {"class_name": "BatchNormalization", "config": {"beta_constraint": null, "gamma_initializer": {"class_name": "Ones", "config": {}}, "moving_mean_initializer": {"class_name": "Zeros", "config": {}}, "name": "block_13_expand_BN", "epsilon": 0.001, "trainable": true, "moving_variance_initializer": {"class_name": "Ones", "config": {}}, "beta_initializer": {"class_name": "Zeros", "config": {}}, "scale": true, "axis": -1, "gamma_constraint": null, "gamma_regularizer": null, "beta_regularizer": null, "momentum": 0.999, "center": true}, "inbound_nodes": [[["block_13_expand", 0, 0, {}]]], "name": "block_13_expand_BN"}, {"class_name": "ReLU", "config": {"threshold": 0.0, "max_value": 6.0, "trainable": true, "name": "block_13_expand_relu", "negative_slope": 0.0}, "inbound_nodes": [[["block_13_expand_BN", 0, 0, {}]]], "name": "block_13_expand_relu"}, {"class_name": "ZeroPadding2D", "config": {"padding": [[0, 1], [0, 1]], "trainable": true, "name": "block_13_pad", "data_format": "channels_last"}, "inbound_nodes": [[["block_13_expand_relu", 0, 0, {}]]], "name": "block_13_pad"}, {"class_name": "DepthwiseConv2D", "config": {"use_bias": false, "trainable": true, "name": "block_13_depthwise", "bias_regularizer": null, "bias_constraint": null, "activation": "linear", "depth_multiplier": 1, "depthwise_constraint": null, "data_format": "channels_last", "padding": "valid", "strides": [2, 2], "dilation_rate": [1, 1], "depthwise_initializer": {"class_name": "VarianceScaling", "config": {"distribution": "uniform", "scale": 1.0, "seed": null, "mode": "fan_avg"}}, "bias_initializer": {"class_name": "Zeros", "config": {}}, "depthwise_regularizer": null, "activity_regularizer": null, "kernel_size": [3, 3]}, "inbound_nodes": [[["block_13_pad", 0, 0, {}]]], "name": "block_13_depthwise"}, {"class_name": "BatchNormalization", "config": {"beta_constraint": null, "gamma_initializer": {"class_name": "Ones", "config": {}}, "moving_mean_initializer": {"class_name": "Zeros", "config": {}}, "name": "block_13_depthwise_BN", "epsilon": 0.001, "trainable": true, "moving_variance_initializer": {"class_name": "Ones", "config": {}}, "beta_initializer": {"class_name": "Zeros", "config": {}}, "scale": true, "axis": -1, "gamma_constraint": null, "gamma_regularizer": null, "beta_regularizer": null, "momentum": 0.999, "center": true}, "inbound_nodes": [[["block_13_depthwise", 0, 0, {}]]], "name": "block_13_depthwise_BN"}, {"class_name": "ReLU", "config": {"threshold": 0.0, "max_value": 6.0, "trainable": true, "name": "block_13_depthwise_relu", "negative_slope": 0.0}, "inbound_nodes": [[["block_13_depthwise_BN", 0, 0, {}]]], "name": "block_13_depthwise_relu"}, {"class_name": "Conv2D", "config": {"kernel_initializer": {"class_name": "VarianceScaling", "config": {"distribution": "uniform", "scale": 1.0, "seed": null, "mode": "fan_avg"}}, "name": "block_13_project", "kernel_constraint": null, "bias_regularizer": null, "bias_constraint": null, "activation": "linear", "trainable": true, "data_format": "channels_last", "padding": "same", "strides": [1, 1], "dilation_rate": [1, 1], "kernel_regularizer": null, "filters": 160, "bias_initializer": {"class_name": "Zeros", "config": {}}, "use_bias": false, "activity_regularizer": null, "kernel_size": [1, 1]}, "inbound_nodes": [[["block_13_depthwise_relu", 0, 0, {}]]], "name": "block_13_project"}, {"class_name": "BatchNormalization", "config": {"beta_constraint": null, "gamma_initializer": {"class_name": "Ones", "config": {}}, "moving_mean_initializer": {"class_name": "Zeros", "config": {}}, "name": "block_13_project_BN", "epsilon": 0.001, "trainable": true, "moving_variance_initializer": {"class_name": "Ones", "config": {}}, "beta_initializer": {"class_name": "Zeros", "config": {}}, "scale": true, "axis": -1, "gamma_constraint": null, "gamma_regularizer": null, "beta_regularizer": null, "momentum": 0.999, "center": true}, "inbound_nodes": [[["block_13_project", 0, 0, {}]]], "name": "block_13_project_BN"}, {"class_name": "Conv2D", "config": {"kernel_initializer": {"class_name": "VarianceScaling", "config": {"distribution": "uniform", "scale": 1.0, "seed": null, "mode": "fan_avg"}}, "name": "block_14_expand", "kernel_constraint": null, "bias_regularizer": null, "bias_constraint": null, "activation": "linear", "trainable": true, "data_format": "channels_last", "padding": "same", "strides": [1, 1], "dilation_rate": [1, 1], "kernel_regularizer": null, "filters": 960, "bias_initializer": {"class_name": "Zeros", "config": {}}, "use_bias": false, "activity_regularizer": null, "kernel_size": [1, 1]}, "inbound_nodes": [[["block_13_project_BN", 0, 0, {}]]], "name": "block_14_expand"}, {"class_name": "BatchNormalization", "config": {"beta_constraint": null, "gamma_initializer": {"class_name": "Ones", "config": {}}, "moving_mean_initializer": {"class_name": "Zeros", "config": {}}, "name": "block_14_expand_BN", "epsilon": 0.001, "trainable": true, "moving_variance_initializer": {"class_name": "Ones", "config": {}}, "beta_initializer": {"class_name": "Zeros", "config": {}}, "scale": true, "axis": -1, "gamma_constraint": null, "gamma_regularizer": null, "beta_regularizer": null, "momentum": 0.999, "center": true}, "inbound_nodes": [[["block_14_expand", 0, 0, {}]]], "name": "block_14_expand_BN"}, {"class_name": "ReLU", "config": {"threshold": 0.0, "max_value": 6.0, "trainable": true, "name": "block_14_expand_relu", "negative_slope": 0.0}, "inbound_nodes": [[["block_14_expand_BN", 0, 0, {}]]], "name": "block_14_expand_relu"}, {"class_name": "DepthwiseConv2D", "config": {"use_bias": false, "trainable": true, "name": "block_14_depthwise", "bias_regularizer": null, "bias_constraint": null, "activation": "linear", "depth_multiplier": 1, "depthwise_constraint": null, "data_format": "channels_last", "padding": "same", "strides": [1, 1], "dilation_rate": [1, 1], "depthwise_initializer": {"class_name": "VarianceScaling", "config": {"distribution": "uniform", "scale": 1.0, "seed": null, "mode": "fan_avg"}}, "bias_initializer": {"class_name": "Zeros", "config": {}}, "depthwise_regularizer": null, "activity_regularizer": null, "kernel_size": [3, 3]}, "inbound_nodes": [[["block_14_expand_relu", 0, 0, {}]]], "name": "block_14_depthwise"}, {"class_name": "BatchNormalization", "config": {"beta_constraint": null, "gamma_initializer": {"class_name": "Ones", "config": {}}, "moving_mean_initializer": {"class_name": "Zeros", "config": {}}, "name": "block_14_depthwise_BN", "epsilon": 0.001, "trainable": true, "moving_variance_initializer": {"class_name": "Ones", "config": {}}, "beta_initializer": {"class_name": "Zeros", "config": {}}, "scale": true, "axis": -1, "gamma_constraint": null, "gamma_regularizer": null, "beta_regularizer": null, "momentum": 0.999, "center": true}, "inbound_nodes": [[["block_14_depthwise", 0, 0, {}]]], "name": "block_14_depthwise_BN"}, {"class_name": "ReLU", "config": {"threshold": 0.0, "max_value": 6.0, "trainable": true, "name": "block_14_depthwise_relu", "negative_slope": 0.0}, "inbound_nodes": [[["block_14_depthwise_BN", 0, 0, {}]]], "name": "block_14_depthwise_relu"}, {"class_name": "Conv2D", "config": {"kernel_initializer": {"class_name": "VarianceScaling", "config": {"distribution": "uniform", "scale": 1.0, "seed": null, "mode": "fan_avg"}}, "name": "block_14_project", "kernel_constraint": null, "bias_regularizer": null, "bias_constraint": null, "activation": "linear", "trainable": true, "data_format": "channels_last", "padding": "same", "strides": [1, 1], "dilation_rate": [1, 1], "kernel_regularizer": null, "filters": 160, "bias_initializer": {"class_name": "Zeros", "config": {}}, "use_bias": false, "activity_regularizer": null, "kernel_size": [1, 1]}, "inbound_nodes": [[["block_14_depthwise_relu", 0, 0, {}]]], "name": "block_14_project"}, {"class_name": "BatchNormalization", "config": {"beta_constraint": null, "gamma_initializer": {"class_name": "Ones", "config": {}}, "moving_mean_initializer": {"class_name": "Zeros", "config": {}}, "name": "block_14_project_BN", "epsilon": 0.001, "trainable": true, "moving_variance_initializer": {"class_name": "Ones", "config": {}}, "beta_initializer": {"class_name": "Zeros", "config": {}}, "scale": true, "axis": -1, "gamma_constraint": null, "gamma_regularizer": null, "beta_regularizer": null, "momentum": 0.999, "center": true}, "inbound_nodes": [[["block_14_project", 0, 0, {}]]], "name": "block_14_project_BN"}, {"class_name": "Add", "config": {"trainable": true, "name": "block_14_add"}, "inbound_nodes": [[["block_13_project_BN", 0, 0, {}], ["block_14_project_BN", 0, 0, {}]]], "name": "block_14_add"}, {"class_name": "Conv2D", "config": {"kernel_initializer": {"class_name": "VarianceScaling", "config": {"distribution": "uniform", "scale": 1.0, "seed": null, "mode": "fan_avg"}}, "name": "block_15_expand", "kernel_constraint": null, "bias_regularizer": null, "bias_constraint": null, "activation": "linear", "trainable": true, "data_format": "channels_last", "padding": "same", "strides": [1, 1], "dilation_rate": [1, 1], "kernel_regularizer": null, "filters": 960, "bias_initializer": {"class_name": "Zeros", "config": {}}, "use_bias": false, "activity_regularizer": null, "kernel_size": [1, 1]}, "inbound_nodes": [[["block_14_add", 0, 0, {}]]], "name": "block_15_expand"}, {"class_name": "BatchNormalization", "config": {"beta_constraint": null, "gamma_initializer": {"class_name": "Ones", "config": {}}, "moving_mean_initializer": {"class_name": "Zeros", "config": {}}, "name": "block_15_expand_BN", "epsilon": 0.001, "trainable": true, "moving_variance_initializer": {"class_name": "Ones", "config": {}}, "beta_initializer": {"class_name": "Zeros", "config": {}}, "scale": true, "axis": -1, "gamma_constraint": null, "gamma_regularizer": null, "beta_regularizer": null, "momentum": 0.999, "center": true}, "inbound_nodes": [[["block_15_expand", 0, 0, {}]]], "name": "block_15_expand_BN"}, {"class_name": "ReLU", "config": {"threshold": 0.0, "max_value": 6.0, "trainable": true, "name": "block_15_expand_relu", "negative_slope": 0.0}, "inbound_nodes": [[["block_15_expand_BN", 0, 0, {}]]], "name": "block_15_expand_relu"}, {"class_name": "DepthwiseConv2D", "config": {"use_bias": false, "trainable": true, "name": "block_15_depthwise", "bias_regularizer": null, "bias_constraint": null, "activation": "linear", "depth_multiplier": 1, "depthwise_constraint": null, "data_format": "channels_last", "padding": "same", "strides": [1, 1], "dilation_rate": [1, 1], "depthwise_initializer": {"class_name": "VarianceScaling", "config": {"distribution": "uniform", "scale": 1.0, "seed": null, "mode": "fan_avg"}}, "bias_initializer": {"class_name": "Zeros", "config": {}}, "depthwise_regularizer": null, "activity_regularizer": null, "kernel_size": [3, 3]}, "inbound_nodes": [[["block_15_expand_relu", 0, 0, {}]]], "name": "block_15_depthwise"}, {"class_name": "BatchNormalization", "config": {"beta_constraint": null, "gamma_initializer": {"class_name": "Ones", "config": {}}, "moving_mean_initializer": {"class_name": "Zeros", "config": {}}, "name": "block_15_depthwise_BN", "epsilon": 0.001, "trainable": true, "moving_variance_initializer": {"class_name": "Ones", "config": {}}, "beta_initializer": {"class_name": "Zeros", "config": {}}, "scale": true, "axis": -1, "gamma_constraint": null, "gamma_regularizer": null, "beta_regularizer": null, "momentum": 0.999, "center": true}, "inbound_nodes": [[["block_15_depthwise", 0, 0, {}]]], "name": "block_15_depthwise_BN"}, {"class_name": "ReLU", "config": {"threshold": 0.0, "max_value": 6.0, "trainable": true, "name": "block_15_depthwise_relu", "negative_slope": 0.0}, "inbound_nodes": [[["block_15_depthwise_BN", 0, 0, {}]]], "name": "block_15_depthwise_relu"}, {"class_name": "Conv2D", "config": {"kernel_initializer": {"class_name": "VarianceScaling", "config": {"distribution": "uniform", "scale": 1.0, "seed": null, "mode": "fan_avg"}}, "name": "block_15_project", "kernel_constraint": null, "bias_regularizer": null, "bias_constraint": null, "activation": "linear", "trainable": true, "data_format": "channels_last", "padding": "same", "strides": [1, 1], "dilation_rate": [1, 1], "kernel_regularizer": null, "filters": 160, "bias_initializer": {"class_name": "Zeros", "config": {}}, "use_bias": false, "activity_regularizer": null, "kernel_size": [1, 1]}, "inbound_nodes": [[["block_15_depthwise_relu", 0, 0, {}]]], "name": "block_15_project"}, {"class_name": "BatchNormalization", "config": {"beta_constraint": null, "gamma_initializer": {"class_name": "Ones", "config": {}}, "moving_mean_initializer": {"class_name": "Zeros", "config": {}}, "name": "block_15_project_BN", "epsilon": 0.001, "trainable": true, "moving_variance_initializer": {"class_name": "Ones", "config": {}}, "beta_initializer": {"class_name": "Zeros", "config": {}}, "scale": true, "axis": -1, "gamma_constraint": null, "gamma_regularizer": null, "beta_regularizer": null, "momentum": 0.999, "center": true}, "inbound_nodes": [[["block_15_project", 0, 0, {}]]], "name": "block_15_project_BN"}, {"class_name": "Add", "config": {"trainable": true, "name": "block_15_add"}, "inbound_nodes": [[["block_14_add", 0, 0, {}], ["block_15_project_BN", 0, 0, {}]]], "name": "block_15_add"}, {"class_name": "Conv2D", "config": {"kernel_initializer": {"class_name": "VarianceScaling", "config": {"distribution": "uniform", "scale": 1.0, "seed": null, "mode": "fan_avg"}}, "name": "block_16_expand", "kernel_constraint": null, "bias_regularizer": null, "bias_constraint": null, "activation": "linear", "trainable": true, "data_format": "channels_last", "padding": "same", "strides": [1, 1], "dilation_rate": [1, 1], "kernel_regularizer": null, "filters": 960, "bias_initializer": {"class_name": "Zeros", "config": {}}, "use_bias": false, "activity_regularizer": null, "kernel_size": [1, 1]}, "inbound_nodes": [[["block_15_add", 0, 0, {}]]], "name": "block_16_expand"}, {"class_name": "BatchNormalization", "config": {"beta_constraint": null, "gamma_initializer": {"class_name": "Ones", "config": {}}, "moving_mean_initializer": {"class_name": "Zeros", "config": {}}, "name": "block_16_expand_BN", "epsilon": 0.001, "trainable": true, "moving_variance_initializer": {"class_name": "Ones", "config": {}}, "beta_initializer": {"class_name": "Zeros", "config": {}}, "scale": true, "axis": -1, "gamma_constraint": null, "gamma_regularizer": null, "beta_regularizer": null, "momentum": 0.999, "center": true}, "inbound_nodes": [[["block_16_expand", 0, 0, {}]]], "name": "block_16_expand_BN"}, {"class_name": "ReLU", "config": {"threshold": 0.0, "max_value": 6.0, "trainable": true, "name": "block_16_expand_relu", "negative_slope": 0.0}, "inbound_nodes": [[["block_16_expand_BN", 0, 0, {}]]], "name": "block_16_expand_relu"}, {"class_name": "DepthwiseConv2D", "config": {"use_bias": false, "trainable": true, "name": "block_16_depthwise", "bias_regularizer": null, "bias_constraint": null, "activation": "linear", "depth_multiplier": 1, "depthwise_constraint": null, "data_format": "channels_last", "padding": "same", "strides": [1, 1], "dilation_rate": [1, 1], "depthwise_initializer": {"class_name": "VarianceScaling", "config": {"distribution": "uniform", "scale": 1.0, "seed": null, "mode": "fan_avg"}}, "bias_initializer": {"class_name": "Zeros", "config": {}}, "depthwise_regularizer": null, "activity_regularizer": null, "kernel_size": [3, 3]}, "inbound_nodes": [[["block_16_expand_relu", 0, 0, {}]]], "name": "block_16_depthwise"}, {"class_name": "BatchNormalization", "config": {"beta_constraint": null, "gamma_initializer": {"class_name": "Ones", "config": {}}, "moving_mean_initializer": {"class_name": "Zeros", "config": {}}, "name": "block_16_depthwise_BN", "epsilon": 0.001, "trainable": true, "moving_variance_initializer": {"class_name": "Ones", "config": {}}, "beta_initializer": {"class_name": "Zeros", "config": {}}, "scale": true, "axis": -1, "gamma_constraint": null, "gamma_regularizer": null, "beta_regularizer": null, "momentum": 0.999, "center": true}, "inbound_nodes": [[["block_16_depthwise", 0, 0, {}]]], "name": "block_16_depthwise_BN"}, {"class_name": "ReLU", "config": {"threshold": 0.0, "max_value": 6.0, "trainable": true, "name": "block_16_depthwise_relu", "negative_slope": 0.0}, "inbound_nodes": [[["block_16_depthwise_BN", 0, 0, {}]]], "name": "block_16_depthwise_relu"}, {"class_name": "Conv2D", "config": {"kernel_initializer": {"class_name": "VarianceScaling", "config": {"distribution": "uniform", "scale": 1.0, "seed": null, "mode": "fan_avg"}}, "name": "block_16_project", "kernel_constraint": null, "bias_regularizer": null, "bias_constraint": null, "activation": "linear", "trainable": true, "data_format": "channels_last", "padding": "same", "strides": [1, 1], "dilation_rate": [1, 1], "kernel_regularizer": null, "filters": 320, "bias_initializer": {"class_name": "Zeros", "config": {}}, "use_bias": false, "activity_regularizer": null, "kernel_size": [1, 1]}, "inbound_nodes": [[["block_16_depthwise_relu", 0, 0, {}]]], "name": "block_16_project"}, {"class_name": "BatchNormalization", "config": {"beta_constraint": null, "gamma_initializer": {"class_name": "Ones", "config": {}}, "moving_mean_initializer": {"class_name": "Zeros", "config": {}}, "name": "block_16_project_BN", "epsilon": 0.001, "trainable": true, "moving_variance_initializer": {"class_name": "Ones", "config": {}}, "beta_initializer": {"class_name": "Zeros", "config": {}}, "scale": true, "axis": -1, "gamma_constraint": null, "gamma_regularizer": null, "beta_regularizer": null, "momentum": 0.999, "center": true}, "inbound_nodes": [[["block_16_project", 0, 0, {}]]], "name": "block_16_project_BN"}, {"class_name": "Conv2D", "config": {"kernel_initializer": {"class_name": "VarianceScaling", "config": {"distribution": "uniform", "scale": 1.0, "seed": null, "mode": "fan_avg"}}, "name": "Conv_1", "kernel_constraint": null, "bias_regularizer": null, "bias_constraint": null, "activation": "linear", "trainable": true, "data_format": "channels_last", "padding": "valid", "strides": [1, 1], "dilation_rate": [1, 1], "kernel_regularizer": null, "filters": 1280, "bias_initializer": {"class_name": "Zeros", "config": {}}, "use_bias": false, "activity_regularizer": null, "kernel_size": [1, 1]}, "inbound_nodes": [[["block_16_project_BN", 0, 0, {}]]], "name": "Conv_1"}, {"class_name": "BatchNormalization", "config": {"beta_constraint": null, "gamma_initializer": {"class_name": "Ones", "config": {}}, "moving_mean_initializer": {"class_name": "Zeros", "config": {}}, "name": "Conv_1_bn", "epsilon": 0.001, "trainable": true, "moving_variance_initializer": {"class_name": "Ones", "config": {}}, "beta_initializer": {"class_name": "Zeros", "config": {}}, "scale": true, "axis": -1, "gamma_constraint": null, "gamma_regularizer": null, "beta_regularizer": null, "momentum": 0.999, "center": true}, "inbound_nodes": [[["Conv_1", 0, 0, {}]]], "name": "Conv_1_bn"}, {"class_name": "ReLU", "config": {"threshold": 0.0, "max_value": 6.0, "trainable": true, "name": "out_relu", "negative_slope": 0.0}, "inbound_nodes": [[["Conv_1_bn", 0, 0, {}]]], "name": "out_relu"}, {"class_name": "GlobalAveragePooling2D", "config": {"trainable": true, "name": "global_average_pooling2d_34", "data_format": "channels_last"}, "inbound_nodes": [[["out_relu", 0, 0, {}]]], "name": "global_average_pooling2d_34"}, {"class_name": "Dense", "config": {"kernel_initializer": {"class_name": "VarianceScaling", "config": {"distribution": "uniform", "scale": 1.0, "seed": null, "mode": "fan_avg"}}, "name": "dense_63", "kernel_constraint": null, "bias_regularizer": null, "bias_constraint": null, "activation": "relu", "trainable": true, "kernel_regularizer": null, "bias_initializer": {"class_name": "Zeros", "config": {}}, "units": 256, "use_bias": true, "activity_regularizer": null}, "inbound_nodes": [[["global_average_pooling2d_34", 0, 0, {}]]], "name": "dense_63"}, {"class_name": "Dropout", "config": {"rate": 0.5, "noise_shape": null, "trainable": true, "seed": null, "name": "dropout_30"}, "inbound_nodes": [[["dense_63", 0, 0, {}]]], "name": "dropout_30"}, {"class_name": "Dense", "config": {"kernel_initializer": {"class_name": "VarianceScaling", "config": {"distribution": "uniform", "scale": 1.0, "seed": null, "mode": "fan_avg"}}, "name": "dense_64", "kernel_constraint": null, "bias_regularizer": null, "bias_constraint": null, "activation": "softmax", "trainable": true, "kernel_regularizer": null, "bias_initializer": {"class_name": "Zeros", "config": {}}, "units": 6, "use_bias": true, "activity_regularizer": null}, "inbound_nodes": [[["dropout_30", 0, 0, {}]]], "name": "dense_64"}], "output_layers": [["dense_64", 0, 0]], "input_layers": [["input_36", 0, 0]], "name": "model_32"}, "name": "model_32"}, {"class_name": "Model", "inbound_nodes": [[["input_1", 0, 0, {}]]], "config": {"layers": [{"class_name": "InputLayer", "config": {"dtype": "float32", "batch_input_shape": [null, 224, 224, 3], "name": "input_37", "sparse": false}, "inbound_nodes": [], "name": "input_37"}, {"class_name": "ZeroPadding2D", "config": {"padding": [[0, 1], [0, 1]], "trainable": true, "name": "Conv1_pad", "data_format": "channels_last"}, "inbound_nodes": [[["input_37", 0, 0, {}]]], "name": "Conv1_pad"}, {"class_name": "Conv2D", "config": {"kernel_initializer": {"class_name": "VarianceScaling", "config": {"distribution": "uniform", "scale": 1.0, "seed": null, "mode": "fan_avg"}}, "name": "Conv1", "kernel_constraint": null, "bias_regularizer": null, "bias_constraint": null, "activation": "linear", "trainable": true, "data_format": "channels_last", "padding": "valid", "strides": [2, 2], "dilation_rate": [1, 1], "kernel_regularizer": null, "filters": 32, "bias_initializer": {"class_name": "Zeros", "config": {}}, "use_bias": false, "activity_regularizer": null, "kernel_size": [3, 3]}, "inbound_nodes": [[["Conv1_pad", 0, 0, {}]]], "name": "Conv1"}, {"class_name": "BatchNormalization", "config": {"beta_constraint": null, "gamma_initializer": {"class_name": "Ones", "config": {}}, "moving_mean_initializer": {"class_name": "Zeros", "config": {}}, "name": "bn_Conv1", "epsilon": 0.001, "trainable": true, "moving_variance_initializer": {"class_name": "Ones", "config": {}}, "beta_initializer": {"class_name": "Zeros", "config": {}}, "scale": true, "axis": -1, "gamma_constraint": null, "gamma_regularizer": null, "beta_regularizer": null, "momentum": 0.999, "center": true}, "inbound_nodes": [[["Conv1", 0, 0, {}]]], "name": "bn_Conv1"}, {"class_name": "ReLU", "config": {"threshold": 0.0, "max_value": 6.0, "trainable": true, "name": "Conv1_relu", "negative_slope": 0.0}, "inbound_nodes": [[["bn_Conv1", 0, 0, {}]]], "name": "Conv1_relu"}, {"class_name": "DepthwiseConv2D", "config": {"use_bias": false, "trainable": true, "name": "expanded_conv_depthwise", "bias_regularizer": null, "bias_constraint": null, "activation": "linear", "depth_multiplier": 1, "depthwise_constraint": null, "data_format": "channels_last", "padding": "same", "strides": [1, 1], "dilation_rate": [1, 1], "depthwise_initializer": {"class_name": "VarianceScaling", "config": {"distribution": "uniform", "scale": 1.0, "seed": null, "mode": "fan_avg"}}, "bias_initializer": {"class_name": "Zeros", "config": {}}, "depthwise_regularizer": null, "activity_regularizer": null, "kernel_size": [3, 3]}, "inbound_nodes": [[["Conv1_relu", 0, 0, {}]]], "name": "expanded_conv_depthwise"}, {"class_name": "BatchNormalization", "config": {"beta_constraint": null, "gamma_initializer": {"class_name": "Ones", "config": {}}, "moving_mean_initializer": {"class_name": "Zeros", "config": {}}, "name": "expanded_conv_depthwise_BN", "epsilon": 0.001, "trainable": true, "moving_variance_initializer": {"class_name": "Ones", "config": {}}, "beta_initializer": {"class_name": "Zeros", "config": {}}, "scale": true, "axis": -1, "gamma_constraint": null, "gamma_regularizer": null, "beta_regularizer": null, "momentum": 0.999, "center": true}, "inbound_nodes": [[["expanded_conv_depthwise", 0, 0, {}]]], "name": "expanded_conv_depthwise_BN"}, {"class_name": "ReLU", "config": {"threshold": 0.0, "max_value": 6.0, "trainable": true, "name": "expanded_conv_depthwise_relu", "negative_slope": 0.0}, "inbound_nodes": [[["expanded_conv_depthwise_BN", 0, 0, {}]]], "name": "expanded_conv_depthwise_relu"}, {"class_name": "Conv2D", "config": {"kernel_initializer": {"class_name": "VarianceScaling", "config": {"distribution": "uniform", "scale": 1.0, "seed": null, "mode": "fan_avg"}}, "name": "expanded_conv_project", "kernel_constraint": null, "bias_regularizer": null, "bias_constraint": null, "activation": "linear", "trainable": true, "data_format": "channels_last", "padding": "same", "strides": [1, 1], "dilation_rate": [1, 1], "kernel_regularizer": null, "filters": 16, "bias_initializer": {"class_name": "Zeros", "config": {}}, "use_bias": false, "activity_regularizer": null, "kernel_size": [1, 1]}, "inbound_nodes": [[["expanded_conv_depthwise_relu", 0, 0, {}]]], "name": "expanded_conv_project"}, {"class_name": "BatchNormalization", "config": {"beta_constraint": null, "gamma_initializer": {"class_name": "Ones", "config": {}}, "moving_mean_initializer": {"class_name": "Zeros", "config": {}}, "name": "expanded_conv_project_BN", "epsilon": 0.001, "trainable": true, "moving_variance_initializer": {"class_name": "Ones", "config": {}}, "beta_initializer": {"class_name": "Zeros", "config": {}}, "scale": true, "axis": -1, "gamma_constraint": null, "gamma_regularizer": null, "beta_regularizer": null, "momentum": 0.999, "center": true}, "inbound_nodes": [[["expanded_conv_project", 0, 0, {}]]], "name": "expanded_conv_project_BN"}, {"class_name": "Conv2D", "config": {"kernel_initializer": {"class_name": "VarianceScaling", "config": {"distribution": "uniform", "scale": 1.0, "seed": null, "mode": "fan_avg"}}, "name": "block_1_expand", "kernel_constraint": null, "bias_regularizer": null, "bias_constraint": null, "activation": "linear", "trainable": true, "data_format": "channels_last", "padding": "same", "strides": [1, 1], "dilation_rate": [1, 1], "kernel_regularizer": null, "filters": 96, "bias_initializer": {"class_name": "Zeros", "config": {}}, "use_bias": false, "activity_regularizer": null, "kernel_size": [1, 1]}, "inbound_nodes": [[["expanded_conv_project_BN", 0, 0, {}]]], "name": "block_1_expand"}, {"class_name": "BatchNormalization", "config": {"beta_constraint": null, "gamma_initializer": {"class_name": "Ones", "config": {}}, "moving_mean_initializer": {"class_name": "Zeros", "config": {}}, "name": "block_1_expand_BN", "epsilon": 0.001, "trainable": true, "moving_variance_initializer": {"class_name": "Ones", "config": {}}, "beta_initializer": {"class_name": "Zeros", "config": {}}, "scale": true, "axis": -1, "gamma_constraint": null, "gamma_regularizer": null, "beta_regularizer": null, "momentum": 0.999, "center": true}, "inbound_nodes": [[["block_1_expand", 0, 0, {}]]], "name": "block_1_expand_BN"}, {"class_name": "ReLU", "config": {"threshold": 0.0, "max_value": 6.0, "trainable": true, "name": "block_1_expand_relu", "negative_slope": 0.0}, "inbound_nodes": [[["block_1_expand_BN", 0, 0, {}]]], "name": "block_1_expand_relu"}, {"class_name": "ZeroPadding2D", "config": {"padding": [[0, 1], [0, 1]], "trainable": true, "name": "block_1_pad", "data_format": "channels_last"}, "inbound_nodes": [[["block_1_expand_relu", 0, 0, {}]]], "name": "block_1_pad"}, {"class_name": "DepthwiseConv2D", "config": {"use_bias": false, "trainable": true, "name": "block_1_depthwise", "bias_regularizer": null, "bias_constraint": null, "activation": "linear", "depth_multiplier": 1, "depthwise_constraint": null, "data_format": "channels_last", "padding": "valid", "strides": [2, 2], "dilation_rate": [1, 1], "depthwise_initializer": {"class_name": "VarianceScaling", "config": {"distribution": "uniform", "scale": 1.0, "seed": null, "mode": "fan_avg"}}, "bias_initializer": {"class_name": "Zeros", "config": {}}, "depthwise_regularizer": null, "activity_regularizer": null, "kernel_size": [3, 3]}, "inbound_nodes": [[["block_1_pad", 0, 0, {}]]], "name": "block_1_depthwise"}, {"class_name": "BatchNormalization", "config": {"beta_constraint": null, "gamma_initializer": {"class_name": "Ones", "config": {}}, "moving_mean_initializer": {"class_name": "Zeros", "config": {}}, "name": "block_1_depthwise_BN", "epsilon": 0.001, "trainable": true, "moving_variance_initializer": {"class_name": "Ones", "config": {}}, "beta_initializer": {"class_name": "Zeros", "config": {}}, "scale": true, "axis": -1, "gamma_constraint": null, "gamma_regularizer": null, "beta_regularizer": null, "momentum": 0.999, "center": true}, "inbound_nodes": [[["block_1_depthwise", 0, 0, {}]]], "name": "block_1_depthwise_BN"}, {"class_name": "ReLU", "config": {"threshold": 0.0, "max_value": 6.0, "trainable": true, "name": "block_1_depthwise_relu", "negative_slope": 0.0}, "inbound_nodes": [[["block_1_depthwise_BN", 0, 0, {}]]], "name": "block_1_depthwise_relu"}, {"class_name": "Conv2D", "config": {"kernel_initializer": {"class_name": "VarianceScaling", "config": {"distribution": "uniform", "scale": 1.0, "seed": null, "mode": "fan_avg"}}, "name": "block_1_project", "kernel_constraint": null, "bias_regularizer": null, "bias_constraint": null, "activation": "linear", "trainable": true, "data_format": "channels_last", "padding": "same", "strides": [1, 1], "dilation_rate": [1, 1], "kernel_regularizer": null, "filters": 24, "bias_initializer": {"class_name": "Zeros", "config": {}}, "use_bias": false, "activity_regularizer": null, "kernel_size": [1, 1]}, "inbound_nodes": [[["block_1_depthwise_relu", 0, 0, {}]]], "name": "block_1_project"}, {"class_name": "BatchNormalization", "config": {"beta_constraint": null, "gamma_initializer": {"class_name": "Ones", "config": {}}, "moving_mean_initializer": {"class_name": "Zeros", "config": {}}, "name": "block_1_project_BN", "epsilon": 0.001, "trainable": true, "moving_variance_initializer": {"class_name": "Ones", "config": {}}, "beta_initializer": {"class_name": "Zeros", "config": {}}, "scale": true, "axis": -1, "gamma_constraint": null, "gamma_regularizer": null, "beta_regularizer": null, "momentum": 0.999, "center": true}, "inbound_nodes": [[["block_1_project", 0, 0, {}]]], "name": "block_1_project_BN"}, {"class_name": "Conv2D", "config": {"kernel_initializer": {"class_name": "VarianceScaling", "config": {"distribution": "uniform", "scale": 1.0, "seed": null, "mode": "fan_avg"}}, "name": "block_2_expand", "kernel_constraint": null, "bias_regularizer": null, "bias_constraint": null, "activation": "linear", "trainable": true, "data_format": "channels_last", "padding": "same", "strides": [1, 1], "dilation_rate": [1, 1], "kernel_regularizer": null, "filters": 144, "bias_initializer": {"class_name": "Zeros", "config": {}}, "use_bias": false, "activity_regularizer": null, "kernel_size": [1, 1]}, "inbound_nodes": [[["block_1_project_BN", 0, 0, {}]]], "name": "block_2_expand"}, {"class_name": "BatchNormalization", "config": {"beta_constraint": null, "gamma_initializer": {"class_name": "Ones", "config": {}}, "moving_mean_initializer": {"class_name": "Zeros", "config": {}}, "name": "block_2_expand_BN", "epsilon": 0.001, "trainable": true, "moving_variance_initializer": {"class_name": "Ones", "config": {}}, "beta_initializer": {"class_name": "Zeros", "config": {}}, "scale": true, "axis": -1, "gamma_constraint": null, "gamma_regularizer": null, "beta_regularizer": null, "momentum": 0.999, "center": true}, "inbound_nodes": [[["block_2_expand", 0, 0, {}]]], "name": "block_2_expand_BN"}, {"class_name": "ReLU", "config": {"threshold": 0.0, "max_value": 6.0, "trainable": true, "name": "block_2_expand_relu", "negative_slope": 0.0}, "inbound_nodes": [[["block_2_expand_BN", 0, 0, {}]]], "name": "block_2_expand_relu"}, {"class_name": "DepthwiseConv2D", "config": {"use_bias": false, "trainable": true, "name": "block_2_depthwise", "bias_regularizer": null, "bias_constraint": null, "activation": "linear", "depth_multiplier": 1, "depthwise_constraint": null, "data_format": "channels_last", "padding": "same", "strides": [1, 1], "dilation_rate": [1, 1], "depthwise_initializer": {"class_name": "VarianceScaling", "config": {"distribution": "uniform", "scale": 1.0, "seed": null, "mode": "fan_avg"}}, "bias_initializer": {"class_name": "Zeros", "config": {}}, "depthwise_regularizer": null, "activity_regularizer": null, "kernel_size": [3, 3]}, "inbound_nodes": [[["block_2_expand_relu", 0, 0, {}]]], "name": "block_2_depthwise"}, {"class_name": "BatchNormalization", "config": {"beta_constraint": null, "gamma_initializer": {"class_name": "Ones", "config": {}}, "moving_mean_initializer": {"class_name": "Zeros", "config": {}}, "name": "block_2_depthwise_BN", "epsilon": 0.001, "trainable": true, "moving_variance_initializer": {"class_name": "Ones", "config": {}}, "beta_initializer": {"class_name": "Zeros", "config": {}}, "scale": true, "axis": -1, "gamma_constraint": null, "gamma_regularizer": null, "beta_regularizer": null, "momentum": 0.999, "center": true}, "inbound_nodes": [[["block_2_depthwise", 0, 0, {}]]], "name": "block_2_depthwise_BN"}, {"class_name": "ReLU", "config": {"threshold": 0.0, "max_value": 6.0, "trainable": true, "name": "block_2_depthwise_relu", "negative_slope": 0.0}, "inbound_nodes": [[["block_2_depthwise_BN", 0, 0, {}]]], "name": "block_2_depthwise_relu"}, {"class_name": "Conv2D", "config": {"kernel_initializer": {"class_name": "VarianceScaling", "config": {"distribution": "uniform", "scale": 1.0, "seed": null, "mode": "fan_avg"}}, "name": "block_2_project", "kernel_constraint": null, "bias_regularizer": null, "bias_constraint": null, "activation": "linear", "trainable": true, "data_format": "channels_last", "padding": "same", "strides": [1, 1], "dilation_rate": [1, 1], "kernel_regularizer": null, "filters": 24, "bias_initializer": {"class_name": "Zeros", "config": {}}, "use_bias": false, "activity_regularizer": null, "kernel_size": [1, 1]}, "inbound_nodes": [[["block_2_depthwise_relu", 0, 0, {}]]], "name": "block_2_project"}, {"class_name": "BatchNormalization", "config": {"beta_constraint": null, "gamma_initializer": {"class_name": "Ones", "config": {}}, "moving_mean_initializer": {"class_name": "Zeros", "config": {}}, "name": "block_2_project_BN", "epsilon": 0.001, "trainable": true, "moving_variance_initializer": {"class_name": "Ones", "config": {}}, "beta_initializer": {"class_name": "Zeros", "config": {}}, "scale": true, "axis": -1, "gamma_constraint": null, "gamma_regularizer": null, "beta_regularizer": null, "momentum": 0.999, "center": true}, "inbound_nodes": [[["block_2_project", 0, 0, {}]]], "name": "block_2_project_BN"}, {"class_name": "Add", "config": {"trainable": true, "name": "block_2_add"}, "inbound_nodes": [[["block_1_project_BN", 0, 0, {}], ["block_2_project_BN", 0, 0, {}]]], "name": "block_2_add"}, {"class_name": "Conv2D", "config": {"kernel_initializer": {"class_name": "VarianceScaling", "config": {"distribution": "uniform", "scale": 1.0, "seed": null, "mode": "fan_avg"}}, "name": "block_3_expand", "kernel_constraint": null, "bias_regularizer": null, "bias_constraint": null, "activation": "linear", "trainable": true, "data_format": "channels_last", "padding": "same", "strides": [1, 1], "dilation_rate": [1, 1], "kernel_regularizer": null, "filters": 144, "bias_initializer": {"class_name": "Zeros", "config": {}}, "use_bias": false, "activity_regularizer": null, "kernel_size": [1, 1]}, "inbound_nodes": [[["block_2_add", 0, 0, {}]]], "name": "block_3_expand"}, {"class_name": "BatchNormalization", "config": {"beta_constraint": null, "gamma_initializer": {"class_name": "Ones", "config": {}}, "moving_mean_initializer": {"class_name": "Zeros", "config": {}}, "name": "block_3_expand_BN", "epsilon": 0.001, "trainable": true, "moving_variance_initializer": {"class_name": "Ones", "config": {}}, "beta_initializer": {"class_name": "Zeros", "config": {}}, "scale": true, "axis": -1, "gamma_constraint": null, "gamma_regularizer": null, "beta_regularizer": null, "momentum": 0.999, "center": true}, "inbound_nodes": [[["block_3_expand", 0, 0, {}]]], "name": "block_3_expand_BN"}, {"class_name": "ReLU", "config": {"threshold": 0.0, "max_value": 6.0, "trainable": true, "name": "block_3_expand_relu", "negative_slope": 0.0}, "inbound_nodes": [[["block_3_expand_BN", 0, 0, {}]]], "name": "block_3_expand_relu"}, {"class_name": "ZeroPadding2D", "config": {"padding": [[0, 1], [0, 1]], "trainable": true, "name": "block_3_pad", "data_format": "channels_last"}, "inbound_nodes": [[["block_3_expand_relu", 0, 0, {}]]], "name": "block_3_pad"}, {"class_name": "DepthwiseConv2D", "config": {"use_bias": false, "trainable": true, "name": "block_3_depthwise", "bias_regularizer": null, "bias_constraint": null, "activation": "linear", "depth_multiplier": 1, "depthwise_constraint": null, "data_format": "channels_last", "padding": "valid", "strides": [2, 2], "dilation_rate": [1, 1], "depthwise_initializer": {"class_name": "VarianceScaling", "config": {"distribution": "uniform", "scale": 1.0, "seed": null, "mode": "fan_avg"}}, "bias_initializer": {"class_name": "Zeros", "config": {}}, "depthwise_regularizer": null, "activity_regularizer": null, "kernel_size": [3, 3]}, "inbound_nodes": [[["block_3_pad", 0, 0, {}]]], "name": "block_3_depthwise"}, {"class_name": "BatchNormalization", "config": {"beta_constraint": null, "gamma_initializer": {"class_name": "Ones", "config": {}}, "moving_mean_initializer": {"class_name": "Zeros", "config": {}}, "name": "block_3_depthwise_BN", "epsilon": 0.001, "trainable": true, "moving_variance_initializer": {"class_name": "Ones", "config": {}}, "beta_initializer": {"class_name": "Zeros", "config": {}}, "scale": true, "axis": -1, "gamma_constraint": null, "gamma_regularizer": null, "beta_regularizer": null, "momentum": 0.999, "center": true}, "inbound_nodes": [[["block_3_depthwise", 0, 0, {}]]], "name": "block_3_depthwise_BN"}, {"class_name": "ReLU", "config": {"threshold": 0.0, "max_value": 6.0, "trainable": true, "name": "block_3_depthwise_relu", "negative_slope": 0.0}, "inbound_nodes": [[["block_3_depthwise_BN", 0, 0, {}]]], "name": "block_3_depthwise_relu"}, {"class_name": "Conv2D", "config": {"kernel_initializer": {"class_name": "VarianceScaling", "config": {"distribution": "uniform", "scale": 1.0, "seed": null, "mode": "fan_avg"}}, "name": "block_3_project", "kernel_constraint": null, "bias_regularizer": null, "bias_constraint": null, "activation": "linear", "trainable": true, "data_format": "channels_last", "padding": "same", "strides": [1, 1], "dilation_rate": [1, 1], "kernel_regularizer": null, "filters": 32, "bias_initializer": {"class_name": "Zeros", "config": {}}, "use_bias": false, "activity_regularizer": null, "kernel_size": [1, 1]}, "inbound_nodes": [[["block_3_depthwise_relu", 0, 0, {}]]], "name": "block_3_project"}, {"class_name": "BatchNormalization", "config": {"beta_constraint": null, "gamma_initializer": {"class_name": "Ones", "config": {}}, "moving_mean_initializer": {"class_name": "Zeros", "config": {}}, "name": "block_3_project_BN", "epsilon": 0.001, "trainable": true, "moving_variance_initializer": {"class_name": "Ones", "config": {}}, "beta_initializer": {"class_name": "Zeros", "config": {}}, "scale": true, "axis": -1, "gamma_constraint": null, "gamma_regularizer": null, "beta_regularizer": null, "momentum": 0.999, "center": true}, "inbound_nodes": [[["block_3_project", 0, 0, {}]]], "name": "block_3_project_BN"}, {"class_name": "Conv2D", "config": {"kernel_initializer": {"class_name": "VarianceScaling", "config": {"distribution": "uniform", "scale": 1.0, "seed": null, "mode": "fan_avg"}}, "name": "block_4_expand", "kernel_constraint": null, "bias_regularizer": null, "bias_constraint": null, "activation": "linear", "trainable": true, "data_format": "channels_last", "padding": "same", "strides": [1, 1], "dilation_rate": [1, 1], "kernel_regularizer": null, "filters": 192, "bias_initializer": {"class_name": "Zeros", "config": {}}, "use_bias": false, "activity_regularizer": null, "kernel_size": [1, 1]}, "inbound_nodes": [[["block_3_project_BN", 0, 0, {}]]], "name": "block_4_expand"}, {"class_name": "BatchNormalization", "config": {"beta_constraint": null, "gamma_initializer": {"class_name": "Ones", "config": {}}, "moving_mean_initializer": {"class_name": "Zeros", "config": {}}, "name": "block_4_expand_BN", "epsilon": 0.001, "trainable": true, "moving_variance_initializer": {"class_name": "Ones", "config": {}}, "beta_initializer": {"class_name": "Zeros", "config": {}}, "scale": true, "axis": -1, "gamma_constraint": null, "gamma_regularizer": null, "beta_regularizer": null, "momentum": 0.999, "center": true}, "inbound_nodes": [[["block_4_expand", 0, 0, {}]]], "name": "block_4_expand_BN"}, {"class_name": "ReLU", "config": {"threshold": 0.0, "max_value": 6.0, "trainable": true, "name": "block_4_expand_relu", "negative_slope": 0.0}, "inbound_nodes": [[["block_4_expand_BN", 0, 0, {}]]], "name": "block_4_expand_relu"}, {"class_name": "DepthwiseConv2D", "config": {"use_bias": false, "trainable": true, "name": "block_4_depthwise", "bias_regularizer": null, "bias_constraint": null, "activation": "linear", "depth_multiplier": 1, "depthwise_constraint": null, "data_format": "channels_last", "padding": "same", "strides": [1, 1], "dilation_rate": [1, 1], "depthwise_initializer": {"class_name": "VarianceScaling", "config": {"distribution": "uniform", "scale": 1.0, "seed": null, "mode": "fan_avg"}}, "bias_initializer": {"class_name": "Zeros", "config": {}}, "depthwise_regularizer": null, "activity_regularizer": null, "kernel_size": [3, 3]}, "inbound_nodes": [[["block_4_expand_relu", 0, 0, {}]]], "name": "block_4_depthwise"}, {"class_name": "BatchNormalization", "config": {"beta_constraint": null, "gamma_initializer": {"class_name": "Ones", "config": {}}, "moving_mean_initializer": {"class_name": "Zeros", "config": {}}, "name": "block_4_depthwise_BN", "epsilon": 0.001, "trainable": true, "moving_variance_initializer": {"class_name": "Ones", "config": {}}, "beta_initializer": {"class_name": "Zeros", "config": {}}, "scale": true, "axis": -1, "gamma_constraint": null, "gamma_regularizer": null, "beta_regularizer": null, "momentum": 0.999, "center": true}, "inbound_nodes": [[["block_4_depthwise", 0, 0, {}]]], "name": "block_4_depthwise_BN"}, {"class_name": "ReLU", "config": {"threshold": 0.0, "max_value": 6.0, "trainable": true, "name": "block_4_depthwise_relu", "negative_slope": 0.0}, "inbound_nodes": [[["block_4_depthwise_BN", 0, 0, {}]]], "name": "block_4_depthwise_relu"}, {"class_name": "Conv2D", "config": {"kernel_initializer": {"class_name": "VarianceScaling", "config": {"distribution": "uniform", "scale": 1.0, "seed": null, "mode": "fan_avg"}}, "name": "block_4_project", "kernel_constraint": null, "bias_regularizer": null, "bias_constraint": null, "activation": "linear", "trainable": true, "data_format": "channels_last", "padding": "same", "strides": [1, 1], "dilation_rate": [1, 1], "kernel_regularizer": null, "filters": 32, "bias_initializer": {"class_name": "Zeros", "config": {}}, "use_bias": false, "activity_regularizer": null, "kernel_size": [1, 1]}, "inbound_nodes": [[["block_4_depthwise_relu", 0, 0, {}]]], "name": "block_4_project"}, {"class_name": "BatchNormalization", "config": {"beta_constraint": null, "gamma_initializer": {"class_name": "Ones", "config": {}}, "moving_mean_initializer": {"class_name": "Zeros", "config": {}}, "name": "block_4_project_BN", "epsilon": 0.001, "trainable": true, "moving_variance_initializer": {"class_name": "Ones", "config": {}}, "beta_initializer": {"class_name": "Zeros", "config": {}}, "scale": true, "axis": -1, "gamma_constraint": null, "gamma_regularizer": null, "beta_regularizer": null, "momentum": 0.999, "center": true}, "inbound_nodes": [[["block_4_project", 0, 0, {}]]], "name": "block_4_project_BN"}, {"class_name": "Add", "config": {"trainable": true, "name": "block_4_add"}, "inbound_nodes": [[["block_3_project_BN", 0, 0, {}], ["block_4_project_BN", 0, 0, {}]]], "name": "block_4_add"}, {"class_name": "Conv2D", "config": {"kernel_initializer": {"class_name": "VarianceScaling", "config": {"distribution": "uniform", "scale": 1.0, "seed": null, "mode": "fan_avg"}}, "name": "block_5_expand", "kernel_constraint": null, "bias_regularizer": null, "bias_constraint": null, "activation": "linear", "trainable": true, "data_format": "channels_last", "padding": "same", "strides": [1, 1], "dilation_rate": [1, 1], "kernel_regularizer": null, "filters": 192, "bias_initializer": {"class_name": "Zeros", "config": {}}, "use_bias": false, "activity_regularizer": null, "kernel_size": [1, 1]}, "inbound_nodes": [[["block_4_add", 0, 0, {}]]], "name": "block_5_expand"}, {"class_name": "BatchNormalization", "config": {"beta_constraint": null, "gamma_initializer": {"class_name": "Ones", "config": {}}, "moving_mean_initializer": {"class_name": "Zeros", "config": {}}, "name": "block_5_expand_BN", "epsilon": 0.001, "trainable": true, "moving_variance_initializer": {"class_name": "Ones", "config": {}}, "beta_initializer": {"class_name": "Zeros", "config": {}}, "scale": true, "axis": -1, "gamma_constraint": null, "gamma_regularizer": null, "beta_regularizer": null, "momentum": 0.999, "center": true}, "inbound_nodes": [[["block_5_expand", 0, 0, {}]]], "name": "block_5_expand_BN"}, {"class_name": "ReLU", "config": {"threshold": 0.0, "max_value": 6.0, "trainable": true, "name": "block_5_expand_relu", "negative_slope": 0.0}, "inbound_nodes": [[["block_5_expand_BN", 0, 0, {}]]], "name": "block_5_expand_relu"}, {"class_name": "DepthwiseConv2D", "config": {"use_bias": false, "trainable": true, "name": "block_5_depthwise", "bias_regularizer": null, "bias_constraint": null, "activation": "linear", "depth_multiplier": 1, "depthwise_constraint": null, "data_format": "channels_last", "padding": "same", "strides": [1, 1], "dilation_rate": [1, 1], "depthwise_initializer": {"class_name": "VarianceScaling", "config": {"distribution": "uniform", "scale": 1.0, "seed": null, "mode": "fan_avg"}}, "bias_initializer": {"class_name": "Zeros", "config": {}}, "depthwise_regularizer": null, "activity_regularizer": null, "kernel_size": [3, 3]}, "inbound_nodes": [[["block_5_expand_relu", 0, 0, {}]]], "name": "block_5_depthwise"}, {"class_name": "BatchNormalization", "config": {"beta_constraint": null, "gamma_initializer": {"class_name": "Ones", "config": {}}, "moving_mean_initializer": {"class_name": "Zeros", "config": {}}, "name": "block_5_depthwise_BN", "epsilon": 0.001, "trainable": true, "moving_variance_initializer": {"class_name": "Ones", "config": {}}, "beta_initializer": {"class_name": "Zeros", "config": {}}, "scale": true, "axis": -1, "gamma_constraint": null, "gamma_regularizer": null, "beta_regularizer": null, "momentum": 0.999, "center": true}, "inbound_nodes": [[["block_5_depthwise", 0, 0, {}]]], "name": "block_5_depthwise_BN"}, {"class_name": "ReLU", "config": {"threshold": 0.0, "max_value": 6.0, "trainable": true, "name": "block_5_depthwise_relu", "negative_slope": 0.0}, "inbound_nodes": [[["block_5_depthwise_BN", 0, 0, {}]]], "name": "block_5_depthwise_relu"}, {"class_name": "Conv2D", "config": {"kernel_initializer": {"class_name": "VarianceScaling", "config": {"distribution": "uniform", "scale": 1.0, "seed": null, "mode": "fan_avg"}}, "name": "block_5_project", "kernel_constraint": null, "bias_regularizer": null, "bias_constraint": null, "activation": "linear", "trainable": true, "data_format": "channels_last", "padding": "same", "strides": [1, 1], "dilation_rate": [1, 1], "kernel_regularizer": null, "filters": 32, "bias_initializer": {"class_name": "Zeros", "config": {}}, "use_bias": false, "activity_regularizer": null, "kernel_size": [1, 1]}, "inbound_nodes": [[["block_5_depthwise_relu", 0, 0, {}]]], "name": "block_5_project"}, {"class_name": "BatchNormalization", "config": {"beta_constraint": null, "gamma_initializer": {"class_name": "Ones", "config": {}}, "moving_mean_initializer": {"class_name": "Zeros", "config": {}}, "name": "block_5_project_BN", "epsilon": 0.001, "trainable": true, "moving_variance_initializer": {"class_name": "Ones", "config": {}}, "beta_initializer": {"class_name": "Zeros", "config": {}}, "scale": true, "axis": -1, "gamma_constraint": null, "gamma_regularizer": null, "beta_regularizer": null, "momentum": 0.999, "center": true}, "inbound_nodes": [[["block_5_project", 0, 0, {}]]], "name": "block_5_project_BN"}, {"class_name": "Add", "config": {"trainable": true, "name": "block_5_add"}, "inbound_nodes": [[["block_4_add", 0, 0, {}], ["block_5_project_BN", 0, 0, {}]]], "name": "block_5_add"}, {"class_name": "Conv2D", "config": {"kernel_initializer": {"class_name": "VarianceScaling", "config": {"distribution": "uniform", "scale": 1.0, "seed": null, "mode": "fan_avg"}}, "name": "block_6_expand", "kernel_constraint": null, "bias_regularizer": null, "bias_constraint": null, "activation": "linear", "trainable": true, "data_format": "channels_last", "padding": "same", "strides": [1, 1], "dilation_rate": [1, 1], "kernel_regularizer": null, "filters": 192, "bias_initializer": {"class_name": "Zeros", "config": {}}, "use_bias": false, "activity_regularizer": null, "kernel_size": [1, 1]}, "inbound_nodes": [[["block_5_add", 0, 0, {}]]], "name": "block_6_expand"}, {"class_name": "BatchNormalization", "config": {"beta_constraint": null, "gamma_initializer": {"class_name": "Ones", "config": {}}, "moving_mean_initializer": {"class_name": "Zeros", "config": {}}, "name": "block_6_expand_BN", "epsilon": 0.001, "trainable": true, "moving_variance_initializer": {"class_name": "Ones", "config": {}}, "beta_initializer": {"class_name": "Zeros", "config": {}}, "scale": true, "axis": -1, "gamma_constraint": null, "gamma_regularizer": null, "beta_regularizer": null, "momentum": 0.999, "center": true}, "inbound_nodes": [[["block_6_expand", 0, 0, {}]]], "name": "block_6_expand_BN"}, {"class_name": "ReLU", "config": {"threshold": 0.0, "max_value": 6.0, "trainable": true, "name": "block_6_expand_relu", "negative_slope": 0.0}, "inbound_nodes": [[["block_6_expand_BN", 0, 0, {}]]], "name": "block_6_expand_relu"}, {"class_name": "ZeroPadding2D", "config": {"padding": [[0, 1], [0, 1]], "trainable": true, "name": "block_6_pad", "data_format": "channels_last"}, "inbound_nodes": [[["block_6_expand_relu", 0, 0, {}]]], "name": "block_6_pad"}, {"class_name": "DepthwiseConv2D", "config": {"use_bias": false, "trainable": true, "name": "block_6_depthwise", "bias_regularizer": null, "bias_constraint": null, "activation": "linear", "depth_multiplier": 1, "depthwise_constraint": null, "data_format": "channels_last", "padding": "valid", "strides": [2, 2], "dilation_rate": [1, 1], "depthwise_initializer": {"class_name": "VarianceScaling", "config": {"distribution": "uniform", "scale": 1.0, "seed": null, "mode": "fan_avg"}}, "bias_initializer": {"class_name": "Zeros", "config": {}}, "depthwise_regularizer": null, "activity_regularizer": null, "kernel_size": [3, 3]}, "inbound_nodes": [[["block_6_pad", 0, 0, {}]]], "name": "block_6_depthwise"}, {"class_name": "BatchNormalization", "config": {"beta_constraint": null, "gamma_initializer": {"class_name": "Ones", "config": {}}, "moving_mean_initializer": {"class_name": "Zeros", "config": {}}, "name": "block_6_depthwise_BN", "epsilon": 0.001, "trainable": true, "moving_variance_initializer": {"class_name": "Ones", "config": {}}, "beta_initializer": {"class_name": "Zeros", "config": {}}, "scale": true, "axis": -1, "gamma_constraint": null, "gamma_regularizer": null, "beta_regularizer": null, "momentum": 0.999, "center": true}, "inbound_nodes": [[["block_6_depthwise", 0, 0, {}]]], "name": "block_6_depthwise_BN"}, {"class_name": "ReLU", "config": {"threshold": 0.0, "max_value": 6.0, "trainable": true, "name": "block_6_depthwise_relu", "negative_slope": 0.0}, "inbound_nodes": [[["block_6_depthwise_BN", 0, 0, {}]]], "name": "block_6_depthwise_relu"}, {"class_name": "Conv2D", "config": {"kernel_initializer": {"class_name": "VarianceScaling", "config": {"distribution": "uniform", "scale": 1.0, "seed": null, "mode": "fan_avg"}}, "name": "block_6_project", "kernel_constraint": null, "bias_regularizer": null, "bias_constraint": null, "activation": "linear", "trainable": true, "data_format": "channels_last", "padding": "same", "strides": [1, 1], "dilation_rate": [1, 1], "kernel_regularizer": null, "filters": 64, "bias_initializer": {"class_name": "Zeros", "config": {}}, "use_bias": false, "activity_regularizer": null, "kernel_size": [1, 1]}, "inbound_nodes": [[["block_6_depthwise_relu", 0, 0, {}]]], "name": "block_6_project"}, {"class_name": "BatchNormalization", "config": {"beta_constraint": null, "gamma_initializer": {"class_name": "Ones", "config": {}}, "moving_mean_initializer": {"class_name": "Zeros", "config": {}}, "name": "block_6_project_BN", "epsilon": 0.001, "trainable": true, "moving_variance_initializer": {"class_name": "Ones", "config": {}}, "beta_initializer": {"class_name": "Zeros", "config": {}}, "scale": true, "axis": -1, "gamma_constraint": null, "gamma_regularizer": null, "beta_regularizer": null, "momentum": 0.999, "center": true}, "inbound_nodes": [[["block_6_project", 0, 0, {}]]], "name": "block_6_project_BN"}, {"class_name": "Conv2D", "config": {"kernel_initializer": {"class_name": "VarianceScaling", "config": {"distribution": "uniform", "scale": 1.0, "seed": null, "mode": "fan_avg"}}, "name": "block_7_expand", "kernel_constraint": null, "bias_regularizer": null, "bias_constraint": null, "activation": "linear", "trainable": true, "data_format": "channels_last", "padding": "same", "strides": [1, 1], "dilation_rate": [1, 1], "kernel_regularizer": null, "filters": 384, "bias_initializer": {"class_name": "Zeros", "config": {}}, "use_bias": false, "activity_regularizer": null, "kernel_size": [1, 1]}, "inbound_nodes": [[["block_6_project_BN", 0, 0, {}]]], "name": "block_7_expand"}, {"class_name": "BatchNormalization", "config": {"beta_constraint": null, "gamma_initializer": {"class_name": "Ones", "config": {}}, "moving_mean_initializer": {"class_name": "Zeros", "config": {}}, "name": "block_7_expand_BN", "epsilon": 0.001, "trainable": true, "moving_variance_initializer": {"class_name": "Ones", "config": {}}, "beta_initializer": {"class_name": "Zeros", "config": {}}, "scale": true, "axis": -1, "gamma_constraint": null, "gamma_regularizer": null, "beta_regularizer": null, "momentum": 0.999, "center": true}, "inbound_nodes": [[["block_7_expand", 0, 0, {}]]], "name": "block_7_expand_BN"}, {"class_name": "ReLU", "config": {"threshold": 0.0, "max_value": 6.0, "trainable": true, "name": "block_7_expand_relu", "negative_slope": 0.0}, "inbound_nodes": [[["block_7_expand_BN", 0, 0, {}]]], "name": "block_7_expand_relu"}, {"class_name": "DepthwiseConv2D", "config": {"use_bias": false, "trainable": true, "name": "block_7_depthwise", "bias_regularizer": null, "bias_constraint": null, "activation": "linear", "depth_multiplier": 1, "depthwise_constraint": null, "data_format": "channels_last", "padding": "same", "strides": [1, 1], "dilation_rate": [1, 1], "depthwise_initializer": {"class_name": "VarianceScaling", "config": {"distribution": "uniform", "scale": 1.0, "seed": null, "mode": "fan_avg"}}, "bias_initializer": {"class_name": "Zeros", "config": {}}, "depthwise_regularizer": null, "activity_regularizer": null, "kernel_size": [3, 3]}, "inbound_nodes": [[["block_7_expand_relu", 0, 0, {}]]], "name": "block_7_depthwise"}, {"class_name": "BatchNormalization", "config": {"beta_constraint": null, "gamma_initializer": {"class_name": "Ones", "config": {}}, "moving_mean_initializer": {"class_name": "Zeros", "config": {}}, "name": "block_7_depthwise_BN", "epsilon": 0.001, "trainable": true, "moving_variance_initializer": {"class_name": "Ones", "config": {}}, "beta_initializer": {"class_name": "Zeros", "config": {}}, "scale": true, "axis": -1, "gamma_constraint": null, "gamma_regularizer": null, "beta_regularizer": null, "momentum": 0.999, "center": true}, "inbound_nodes": [[["block_7_depthwise", 0, 0, {}]]], "name": "block_7_depthwise_BN"}, {"class_name": "ReLU", "config": {"threshold": 0.0, "max_value": 6.0, "trainable": true, "name": "block_7_depthwise_relu", "negative_slope": 0.0}, "inbound_nodes": [[["block_7_depthwise_BN", 0, 0, {}]]], "name": "block_7_depthwise_relu"}, {"class_name": "Conv2D", "config": {"kernel_initializer": {"class_name": "VarianceScaling", "config": {"distribution": "uniform", "scale": 1.0, "seed": null, "mode": "fan_avg"}}, "name": "block_7_project", "kernel_constraint": null, "bias_regularizer": null, "bias_constraint": null, "activation": "linear", "trainable": true, "data_format": "channels_last", "padding": "same", "strides": [1, 1], "dilation_rate": [1, 1], "kernel_regularizer": null, "filters": 64, "bias_initializer": {"class_name": "Zeros", "config": {}}, "use_bias": false, "activity_regularizer": null, "kernel_size": [1, 1]}, "inbound_nodes": [[["block_7_depthwise_relu", 0, 0, {}]]], "name": "block_7_project"}, {"class_name": "BatchNormalization", "config": {"beta_constraint": null, "gamma_initializer": {"class_name": "Ones", "config": {}}, "moving_mean_initializer": {"class_name": "Zeros", "config": {}}, "name": "block_7_project_BN", "epsilon": 0.001, "trainable": true, "moving_variance_initializer": {"class_name": "Ones", "config": {}}, "beta_initializer": {"class_name": "Zeros", "config": {}}, "scale": true, "axis": -1, "gamma_constraint": null, "gamma_regularizer": null, "beta_regularizer": null, "momentum": 0.999, "center": true}, "inbound_nodes": [[["block_7_project", 0, 0, {}]]], "name": "block_7_project_BN"}, {"class_name": "Add", "config": {"trainable": true, "name": "block_7_add"}, "inbound_nodes": [[["block_6_project_BN", 0, 0, {}], ["block_7_project_BN", 0, 0, {}]]], "name": "block_7_add"}, {"class_name": "Conv2D", "config": {"kernel_initializer": {"class_name": "VarianceScaling", "config": {"distribution": "uniform", "scale": 1.0, "seed": null, "mode": "fan_avg"}}, "name": "block_8_expand", "kernel_constraint": null, "bias_regularizer": null, "bias_constraint": null, "activation": "linear", "trainable": true, "data_format": "channels_last", "padding": "same", "strides": [1, 1], "dilation_rate": [1, 1], "kernel_regularizer": null, "filters": 384, "bias_initializer": {"class_name": "Zeros", "config": {}}, "use_bias": false, "activity_regularizer": null, "kernel_size": [1, 1]}, "inbound_nodes": [[["block_7_add", 0, 0, {}]]], "name": "block_8_expand"}, {"class_name": "BatchNormalization", "config": {"beta_constraint": null, "gamma_initializer": {"class_name": "Ones", "config": {}}, "moving_mean_initializer": {"class_name": "Zeros", "config": {}}, "name": "block_8_expand_BN", "epsilon": 0.001, "trainable": true, "moving_variance_initializer": {"class_name": "Ones", "config": {}}, "beta_initializer": {"class_name": "Zeros", "config": {}}, "scale": true, "axis": -1, "gamma_constraint": null, "gamma_regularizer": null, "beta_regularizer": null, "momentum": 0.999, "center": true}, "inbound_nodes": [[["block_8_expand", 0, 0, {}]]], "name": "block_8_expand_BN"}, {"class_name": "ReLU", "config": {"threshold": 0.0, "max_value": 6.0, "trainable": true, "name": "block_8_expand_relu", "negative_slope": 0.0}, "inbound_nodes": [[["block_8_expand_BN", 0, 0, {}]]], "name": "block_8_expand_relu"}, {"class_name": "DepthwiseConv2D", "config": {"use_bias": false, "trainable": true, "name": "block_8_depthwise", "bias_regularizer": null, "bias_constraint": null, "activation": "linear", "depth_multiplier": 1, "depthwise_constraint": null, "data_format": "channels_last", "padding": "same", "strides": [1, 1], "dilation_rate": [1, 1], "depthwise_initializer": {"class_name": "VarianceScaling", "config": {"distribution": "uniform", "scale": 1.0, "seed": null, "mode": "fan_avg"}}, "bias_initializer": {"class_name": "Zeros", "config": {}}, "depthwise_regularizer": null, "activity_regularizer": null, "kernel_size": [3, 3]}, "inbound_nodes": [[["block_8_expand_relu", 0, 0, {}]]], "name": "block_8_depthwise"}, {"class_name": "BatchNormalization", "config": {"beta_constraint": null, "gamma_initializer": {"class_name": "Ones", "config": {}}, "moving_mean_initializer": {"class_name": "Zeros", "config": {}}, "name": "block_8_depthwise_BN", "epsilon": 0.001, "trainable": true, "moving_variance_initializer": {"class_name": "Ones", "config": {}}, "beta_initializer": {"class_name": "Zeros", "config": {}}, "scale": true, "axis": -1, "gamma_constraint": null, "gamma_regularizer": null, "beta_regularizer": null, "momentum": 0.999, "center": true}, "inbound_nodes": [[["block_8_depthwise", 0, 0, {}]]], "name": "block_8_depthwise_BN"}, {"class_name": "ReLU", "config": {"threshold": 0.0, "max_value": 6.0, "trainable": true, "name": "block_8_depthwise_relu", "negative_slope": 0.0}, "inbound_nodes": [[["block_8_depthwise_BN", 0, 0, {}]]], "name": "block_8_depthwise_relu"}, {"class_name": "Conv2D", "config": {"kernel_initializer": {"class_name": "VarianceScaling", "config": {"distribution": "uniform", "scale": 1.0, "seed": null, "mode": "fan_avg"}}, "name": "block_8_project", "kernel_constraint": null, "bias_regularizer": null, "bias_constraint": null, "activation": "linear", "trainable": true, "data_format": "channels_last", "padding": "same", "strides": [1, 1], "dilation_rate": [1, 1], "kernel_regularizer": null, "filters": 64, "bias_initializer": {"class_name": "Zeros", "config": {}}, "use_bias": false, "activity_regularizer": null, "kernel_size": [1, 1]}, "inbound_nodes": [[["block_8_depthwise_relu", 0, 0, {}]]], "name": "block_8_project"}, {"class_name": "BatchNormalization", "config": {"beta_constraint": null, "gamma_initializer": {"class_name": "Ones", "config": {}}, "moving_mean_initializer": {"class_name": "Zeros", "config": {}}, "name": "block_8_project_BN", "epsilon": 0.001, "trainable": true, "moving_variance_initializer": {"class_name": "Ones", "config": {}}, "beta_initializer": {"class_name": "Zeros", "config": {}}, "scale": true, "axis": -1, "gamma_constraint": null, "gamma_regularizer": null, "beta_regularizer": null, "momentum": 0.999, "center": true}, "inbound_nodes": [[["block_8_project", 0, 0, {}]]], "name": "block_8_project_BN"}, {"class_name": "Add", "config": {"trainable": true, "name": "block_8_add"}, "inbound_nodes": [[["block_7_add", 0, 0, {}], ["block_8_project_BN", 0, 0, {}]]], "name": "block_8_add"}, {"class_name": "Conv2D", "config": {"kernel_initializer": {"class_name": "VarianceScaling", "config": {"distribution": "uniform", "scale": 1.0, "seed": null, "mode": "fan_avg"}}, "name": "block_9_expand", "kernel_constraint": null, "bias_regularizer": null, "bias_constraint": null, "activation": "linear", "trainable": true, "data_format": "channels_last", "padding": "same", "strides": [1, 1], "dilation_rate": [1, 1], "kernel_regularizer": null, "filters": 384, "bias_initializer": {"class_name": "Zeros", "config": {}}, "use_bias": false, "activity_regularizer": null, "kernel_size": [1, 1]}, "inbound_nodes": [[["block_8_add", 0, 0, {}]]], "name": "block_9_expand"}, {"class_name": "BatchNormalization", "config": {"beta_constraint": null, "gamma_initializer": {"class_name": "Ones", "config": {}}, "moving_mean_initializer": {"class_name": "Zeros", "config": {}}, "name": "block_9_expand_BN", "epsilon": 0.001, "trainable": true, "moving_variance_initializer": {"class_name": "Ones", "config": {}}, "beta_initializer": {"class_name": "Zeros", "config": {}}, "scale": true, "axis": -1, "gamma_constraint": null, "gamma_regularizer": null, "beta_regularizer": null, "momentum": 0.999, "center": true}, "inbound_nodes": [[["block_9_expand", 0, 0, {}]]], "name": "block_9_expand_BN"}, {"class_name": "ReLU", "config": {"threshold": 0.0, "max_value": 6.0, "trainable": true, "name": "block_9_expand_relu", "negative_slope": 0.0}, "inbound_nodes": [[["block_9_expand_BN", 0, 0, {}]]], "name": "block_9_expand_relu"}, {"class_name": "DepthwiseConv2D", "config": {"use_bias": false, "trainable": true, "name": "block_9_depthwise", "bias_regularizer": null, "bias_constraint": null, "activation": "linear", "depth_multiplier": 1, "depthwise_constraint": null, "data_format": "channels_last", "padding": "same", "strides": [1, 1], "dilation_rate": [1, 1], "depthwise_initializer": {"class_name": "VarianceScaling", "config": {"distribution": "uniform", "scale": 1.0, "seed": null, "mode": "fan_avg"}}, "bias_initializer": {"class_name": "Zeros", "config": {}}, "depthwise_regularizer": null, "activity_regularizer": null, "kernel_size": [3, 3]}, "inbound_nodes": [[["block_9_expand_relu", 0, 0, {}]]], "name": "block_9_depthwise"}, {"class_name": "BatchNormalization", "config": {"beta_constraint": null, "gamma_initializer": {"class_name": "Ones", "config": {}}, "moving_mean_initializer": {"class_name": "Zeros", "config": {}}, "name": "block_9_depthwise_BN", "epsilon": 0.001, "trainable": true, "moving_variance_initializer": {"class_name": "Ones", "config": {}}, "beta_initializer": {"class_name": "Zeros", "config": {}}, "scale": true, "axis": -1, "gamma_constraint": null, "gamma_regularizer": null, "beta_regularizer": null, "momentum": 0.999, "center": true}, "inbound_nodes": [[["block_9_depthwise", 0, 0, {}]]], "name": "block_9_depthwise_BN"}, {"class_name": "ReLU", "config": {"threshold": 0.0, "max_value": 6.0, "trainable": true, "name": "block_9_depthwise_relu", "negative_slope": 0.0}, "inbound_nodes": [[["block_9_depthwise_BN", 0, 0, {}]]], "name": "block_9_depthwise_relu"}, {"class_name": "Conv2D", "config": {"kernel_initializer": {"class_name": "VarianceScaling", "config": {"distribution": "uniform", "scale": 1.0, "seed": null, "mode": "fan_avg"}}, "name": "block_9_project", "kernel_constraint": null, "bias_regularizer": null, "bias_constraint": null, "activation": "linear", "trainable": true, "data_format": "channels_last", "padding": "same", "strides": [1, 1], "dilation_rate": [1, 1], "kernel_regularizer": null, "filters": 64, "bias_initializer": {"class_name": "Zeros", "config": {}}, "use_bias": false, "activity_regularizer": null, "kernel_size": [1, 1]}, "inbound_nodes": [[["block_9_depthwise_relu", 0, 0, {}]]], "name": "block_9_project"}, {"class_name": "BatchNormalization", "config": {"beta_constraint": null, "gamma_initializer": {"class_name": "Ones", "config": {}}, "moving_mean_initializer": {"class_name": "Zeros", "config": {}}, "name": "block_9_project_BN", "epsilon": 0.001, "trainable": true, "moving_variance_initializer": {"class_name": "Ones", "config": {}}, "beta_initializer": {"class_name": "Zeros", "config": {}}, "scale": true, "axis": -1, "gamma_constraint": null, "gamma_regularizer": null, "beta_regularizer": null, "momentum": 0.999, "center": true}, "inbound_nodes": [[["block_9_project", 0, 0, {}]]], "name": "block_9_project_BN"}, {"class_name": "Add", "config": {"trainable": true, "name": "block_9_add"}, "inbound_nodes": [[["block_8_add", 0, 0, {}], ["block_9_project_BN", 0, 0, {}]]], "name": "block_9_add"}, {"class_name": "Conv2D", "config": {"kernel_initializer": {"class_name": "VarianceScaling", "config": {"distribution": "uniform", "scale": 1.0, "seed": null, "mode": "fan_avg"}}, "name": "block_10_expand", "kernel_constraint": null, "bias_regularizer": null, "bias_constraint": null, "activation": "linear", "trainable": true, "data_format": "channels_last", "padding": "same", "strides": [1, 1], "dilation_rate": [1, 1], "kernel_regularizer": null, "filters": 384, "bias_initializer": {"class_name": "Zeros", "config": {}}, "use_bias": false, "activity_regularizer": null, "kernel_size": [1, 1]}, "inbound_nodes": [[["block_9_add", 0, 0, {}]]], "name": "block_10_expand"}, {"class_name": "BatchNormalization", "config": {"beta_constraint": null, "gamma_initializer": {"class_name": "Ones", "config": {}}, "moving_mean_initializer": {"class_name": "Zeros", "config": {}}, "name": "block_10_expand_BN", "epsilon": 0.001, "trainable": true, "moving_variance_initializer": {"class_name": "Ones", "config": {}}, "beta_initializer": {"class_name": "Zeros", "config": {}}, "scale": true, "axis": -1, "gamma_constraint": null, "gamma_regularizer": null, "beta_regularizer": null, "momentum": 0.999, "center": true}, "inbound_nodes": [[["block_10_expand", 0, 0, {}]]], "name": "block_10_expand_BN"}, {"class_name": "ReLU", "config": {"threshold": 0.0, "max_value": 6.0, "trainable": true, "name": "block_10_expand_relu", "negative_slope": 0.0}, "inbound_nodes": [[["block_10_expand_BN", 0, 0, {}]]], "name": "block_10_expand_relu"}, {"class_name": "DepthwiseConv2D", "config": {"use_bias": false, "trainable": true, "name": "block_10_depthwise", "bias_regularizer": null, "bias_constraint": null, "activation": "linear", "depth_multiplier": 1, "depthwise_constraint": null, "data_format": "channels_last", "padding": "same", "strides": [1, 1], "dilation_rate": [1, 1], "depthwise_initializer": {"class_name": "VarianceScaling", "config": {"distribution": "uniform", "scale": 1.0, "seed": null, "mode": "fan_avg"}}, "bias_initializer": {"class_name": "Zeros", "config": {}}, "depthwise_regularizer": null, "activity_regularizer": null, "kernel_size": [3, 3]}, "inbound_nodes": [[["block_10_expand_relu", 0, 0, {}]]], "name": "block_10_depthwise"}, {"class_name": "BatchNormalization", "config": {"beta_constraint": null, "gamma_initializer": {"class_name": "Ones", "config": {}}, "moving_mean_initializer": {"class_name": "Zeros", "config": {}}, "name": "block_10_depthwise_BN", "epsilon": 0.001, "trainable": true, "moving_variance_initializer": {"class_name": "Ones", "config": {}}, "beta_initializer": {"class_name": "Zeros", "config": {}}, "scale": true, "axis": -1, "gamma_constraint": null, "gamma_regularizer": null, "beta_regularizer": null, "momentum": 0.999, "center": true}, "inbound_nodes": [[["block_10_depthwise", 0, 0, {}]]], "name": "block_10_depthwise_BN"}, {"class_name": "ReLU", "config": {"threshold": 0.0, "max_value": 6.0, "trainable": true, "name": "block_10_depthwise_relu", "negative_slope": 0.0}, "inbound_nodes": [[["block_10_depthwise_BN", 0, 0, {}]]], "name": "block_10_depthwise_relu"}, {"class_name": "Conv2D", "config": {"kernel_initializer": {"class_name": "VarianceScaling", "config": {"distribution": "uniform", "scale": 1.0, "seed": null, "mode": "fan_avg"}}, "name": "block_10_project", "kernel_constraint": null, "bias_regularizer": null, "bias_constraint": null, "activation": "linear", "trainable": true, "data_format": "channels_last", "padding": "same", "strides": [1, 1], "dilation_rate": [1, 1], "kernel_regularizer": null, "filters": 96, "bias_initializer": {"class_name": "Zeros", "config": {}}, "use_bias": false, "activity_regularizer": null, "kernel_size": [1, 1]}, "inbound_nodes": [[["block_10_depthwise_relu", 0, 0, {}]]], "name": "block_10_project"}, {"class_name": "BatchNormalization", "config": {"beta_constraint": null, "gamma_initializer": {"class_name": "Ones", "config": {}}, "moving_mean_initializer": {"class_name": "Zeros", "config": {}}, "name": "block_10_project_BN", "epsilon": 0.001, "trainable": true, "moving_variance_initializer": {"class_name": "Ones", "config": {}}, "beta_initializer": {"class_name": "Zeros", "config": {}}, "scale": true, "axis": -1, "gamma_constraint": null, "gamma_regularizer": null, "beta_regularizer": null, "momentum": 0.999, "center": true}, "inbound_nodes": [[["block_10_project", 0, 0, {}]]], "name": "block_10_project_BN"}, {"class_name": "Conv2D", "config": {"kernel_initializer": {"class_name": "VarianceScaling", "config": {"distribution": "uniform", "scale": 1.0, "seed": null, "mode": "fan_avg"}}, "name": "block_11_expand", "kernel_constraint": null, "bias_regularizer": null, "bias_constraint": null, "activation": "linear", "trainable": true, "data_format": "channels_last", "padding": "same", "strides": [1, 1], "dilation_rate": [1, 1], "kernel_regularizer": null, "filters": 576, "bias_initializer": {"class_name": "Zeros", "config": {}}, "use_bias": false, "activity_regularizer": null, "kernel_size": [1, 1]}, "inbound_nodes": [[["block_10_project_BN", 0, 0, {}]]], "name": "block_11_expand"}, {"class_name": "BatchNormalization", "config": {"beta_constraint": null, "gamma_initializer": {"class_name": "Ones", "config": {}}, "moving_mean_initializer": {"class_name": "Zeros", "config": {}}, "name": "block_11_expand_BN", "epsilon": 0.001, "trainable": true, "moving_variance_initializer": {"class_name": "Ones", "config": {}}, "beta_initializer": {"class_name": "Zeros", "config": {}}, "scale": true, "axis": -1, "gamma_constraint": null, "gamma_regularizer": null, "beta_regularizer": null, "momentum": 0.999, "center": true}, "inbound_nodes": [[["block_11_expand", 0, 0, {}]]], "name": "block_11_expand_BN"}, {"class_name": "ReLU", "config": {"threshold": 0.0, "max_value": 6.0, "trainable": true, "name": "block_11_expand_relu", "negative_slope": 0.0}, "inbound_nodes": [[["block_11_expand_BN", 0, 0, {}]]], "name": "block_11_expand_relu"}, {"class_name": "DepthwiseConv2D", "config": {"use_bias": false, "trainable": true, "name": "block_11_depthwise", "bias_regularizer": null, "bias_constraint": null, "activation": "linear", "depth_multiplier": 1, "depthwise_constraint": null, "data_format": "channels_last", "padding": "same", "strides": [1, 1], "dilation_rate": [1, 1], "depthwise_initializer": {"class_name": "VarianceScaling", "config": {"distribution": "uniform", "scale": 1.0, "seed": null, "mode": "fan_avg"}}, "bias_initializer": {"class_name": "Zeros", "config": {}}, "depthwise_regularizer": null, "activity_regularizer": null, "kernel_size": [3, 3]}, "inbound_nodes": [[["block_11_expand_relu", 0, 0, {}]]], "name": "block_11_depthwise"}, {"class_name": "BatchNormalization", "config": {"beta_constraint": null, "gamma_initializer": {"class_name": "Ones", "config": {}}, "moving_mean_initializer": {"class_name": "Zeros", "config": {}}, "name": "block_11_depthwise_BN", "epsilon": 0.001, "trainable": true, "moving_variance_initializer": {"class_name": "Ones", "config": {}}, "beta_initializer": {"class_name": "Zeros", "config": {}}, "scale": true, "axis": -1, "gamma_constraint": null, "gamma_regularizer": null, "beta_regularizer": null, "momentum": 0.999, "center": true}, "inbound_nodes": [[["block_11_depthwise", 0, 0, {}]]], "name": "block_11_depthwise_BN"}, {"class_name": "ReLU", "config": {"threshold": 0.0, "max_value": 6.0, "trainable": true, "name": "block_11_depthwise_relu", "negative_slope": 0.0}, "inbound_nodes": [[["block_11_depthwise_BN", 0, 0, {}]]], "name": "block_11_depthwise_relu"}, {"class_name": "Conv2D", "config": {"kernel_initializer": {"class_name": "VarianceScaling", "config": {"distribution": "uniform", "scale": 1.0, "seed": null, "mode": "fan_avg"}}, "name": "block_11_project", "kernel_constraint": null, "bias_regularizer": null, "bias_constraint": null, "activation": "linear", "trainable": true, "data_format": "channels_last", "padding": "same", "strides": [1, 1], "dilation_rate": [1, 1], "kernel_regularizer": null, "filters": 96, "bias_initializer": {"class_name": "Zeros", "config": {}}, "use_bias": false, "activity_regularizer": null, "kernel_size": [1, 1]}, "inbound_nodes": [[["block_11_depthwise_relu", 0, 0, {}]]], "name": "block_11_project"}, {"class_name": "BatchNormalization", "config": {"beta_constraint": null, "gamma_initializer": {"class_name": "Ones", "config": {}}, "moving_mean_initializer": {"class_name": "Zeros", "config": {}}, "name": "block_11_project_BN", "epsilon": 0.001, "trainable": true, "moving_variance_initializer": {"class_name": "Ones", "config": {}}, "beta_initializer": {"class_name": "Zeros", "config": {}}, "scale": true, "axis": -1, "gamma_constraint": null, "gamma_regularizer": null, "beta_regularizer": null, "momentum": 0.999, "center": true}, "inbound_nodes": [[["block_11_project", 0, 0, {}]]], "name": "block_11_project_BN"}, {"class_name": "Add", "config": {"trainable": true, "name": "block_11_add"}, "inbound_nodes": [[["block_10_project_BN", 0, 0, {}], ["block_11_project_BN", 0, 0, {}]]], "name": "block_11_add"}, {"class_name": "Conv2D", "config": {"kernel_initializer": {"class_name": "VarianceScaling", "config": {"distribution": "uniform", "scale": 1.0, "seed": null, "mode": "fan_avg"}}, "name": "block_12_expand", "kernel_constraint": null, "bias_regularizer": null, "bias_constraint": null, "activation": "linear", "trainable": true, "data_format": "channels_last", "padding": "same", "strides": [1, 1], "dilation_rate": [1, 1], "kernel_regularizer": null, "filters": 576, "bias_initializer": {"class_name": "Zeros", "config": {}}, "use_bias": false, "activity_regularizer": null, "kernel_size": [1, 1]}, "inbound_nodes": [[["block_11_add", 0, 0, {}]]], "name": "block_12_expand"}, {"class_name": "BatchNormalization", "config": {"beta_constraint": null, "gamma_initializer": {"class_name": "Ones", "config": {}}, "moving_mean_initializer": {"class_name": "Zeros", "config": {}}, "name": "block_12_expand_BN", "epsilon": 0.001, "trainable": true, "moving_variance_initializer": {"class_name": "Ones", "config": {}}, "beta_initializer": {"class_name": "Zeros", "config": {}}, "scale": true, "axis": -1, "gamma_constraint": null, "gamma_regularizer": null, "beta_regularizer": null, "momentum": 0.999, "center": true}, "inbound_nodes": [[["block_12_expand", 0, 0, {}]]], "name": "block_12_expand_BN"}, {"class_name": "ReLU", "config": {"threshold": 0.0, "max_value": 6.0, "trainable": true, "name": "block_12_expand_relu", "negative_slope": 0.0}, "inbound_nodes": [[["block_12_expand_BN", 0, 0, {}]]], "name": "block_12_expand_relu"}, {"class_name": "DepthwiseConv2D", "config": {"use_bias": false, "trainable": true, "name": "block_12_depthwise", "bias_regularizer": null, "bias_constraint": null, "activation": "linear", "depth_multiplier": 1, "depthwise_constraint": null, "data_format": "channels_last", "padding": "same", "strides": [1, 1], "dilation_rate": [1, 1], "depthwise_initializer": {"class_name": "VarianceScaling", "config": {"distribution": "uniform", "scale": 1.0, "seed": null, "mode": "fan_avg"}}, "bias_initializer": {"class_name": "Zeros", "config": {}}, "depthwise_regularizer": null, "activity_regularizer": null, "kernel_size": [3, 3]}, "inbound_nodes": [[["block_12_expand_relu", 0, 0, {}]]], "name": "block_12_depthwise"}, {"class_name": "BatchNormalization", "config": {"beta_constraint": null, "gamma_initializer": {"class_name": "Ones", "config": {}}, "moving_mean_initializer": {"class_name": "Zeros", "config": {}}, "name": "block_12_depthwise_BN", "epsilon": 0.001, "trainable": true, "moving_variance_initializer": {"class_name": "Ones", "config": {}}, "beta_initializer": {"class_name": "Zeros", "config": {}}, "scale": true, "axis": -1, "gamma_constraint": null, "gamma_regularizer": null, "beta_regularizer": null, "momentum": 0.999, "center": true}, "inbound_nodes": [[["block_12_depthwise", 0, 0, {}]]], "name": "block_12_depthwise_BN"}, {"class_name": "ReLU", "config": {"threshold": 0.0, "max_value": 6.0, "trainable": true, "name": "block_12_depthwise_relu", "negative_slope": 0.0}, "inbound_nodes": [[["block_12_depthwise_BN", 0, 0, {}]]], "name": "block_12_depthwise_relu"}, {"class_name": "Conv2D", "config": {"kernel_initializer": {"class_name": "VarianceScaling", "config": {"distribution": "uniform", "scale": 1.0, "seed": null, "mode": "fan_avg"}}, "name": "block_12_project", "kernel_constraint": null, "bias_regularizer": null, "bias_constraint": null, "activation": "linear", "trainable": true, "data_format": "channels_last", "padding": "same", "strides": [1, 1], "dilation_rate": [1, 1], "kernel_regularizer": null, "filters": 96, "bias_initializer": {"class_name": "Zeros", "config": {}}, "use_bias": false, "activity_regularizer": null, "kernel_size": [1, 1]}, "inbound_nodes": [[["block_12_depthwise_relu", 0, 0, {}]]], "name": "block_12_project"}, {"class_name": "BatchNormalization", "config": {"beta_constraint": null, "gamma_initializer": {"class_name": "Ones", "config": {}}, "moving_mean_initializer": {"class_name": "Zeros", "config": {}}, "name": "block_12_project_BN", "epsilon": 0.001, "trainable": true, "moving_variance_initializer": {"class_name": "Ones", "config": {}}, "beta_initializer": {"class_name": "Zeros", "config": {}}, "scale": true, "axis": -1, "gamma_constraint": null, "gamma_regularizer": null, "beta_regularizer": null, "momentum": 0.999, "center": true}, "inbound_nodes": [[["block_12_project", 0, 0, {}]]], "name": "block_12_project_BN"}, {"class_name": "Add", "config": {"trainable": true, "name": "block_12_add"}, "inbound_nodes": [[["block_11_add", 0, 0, {}], ["block_12_project_BN", 0, 0, {}]]], "name": "block_12_add"}, {"class_name": "Conv2D", "config": {"kernel_initializer": {"class_name": "VarianceScaling", "config": {"distribution": "uniform", "scale": 1.0, "seed": null, "mode": "fan_avg"}}, "name": "block_13_expand", "kernel_constraint": null, "bias_regularizer": null, "bias_constraint": null, "activation": "linear", "trainable": true, "data_format": "channels_last", "padding": "same", "strides": [1, 1], "dilation_rate": [1, 1], "kernel_regularizer": null, "filters": 576, "bias_initializer": {"class_name": "Zeros", "config": {}}, "use_bias": false, "activity_regularizer": null, "kernel_size": [1, 1]}, "inbound_nodes": [[["block_12_add", 0, 0, {}]]], "name": "block_13_expand"}, {"class_name": "BatchNormalization", "config": {"beta_constraint": null, "gamma_initializer": {"class_name": "Ones", "config": {}}, "moving_mean_initializer": {"class_name": "Zeros", "config": {}}, "name": "block_13_expand_BN", "epsilon": 0.001, "trainable": true, "moving_variance_initializer": {"class_name": "Ones", "config": {}}, "beta_initializer": {"class_name": "Zeros", "config": {}}, "scale": true, "axis": -1, "gamma_constraint": null, "gamma_regularizer": null, "beta_regularizer": null, "momentum": 0.999, "center": true}, "inbound_nodes": [[["block_13_expand", 0, 0, {}]]], "name": "block_13_expand_BN"}, {"class_name": "ReLU", "config": {"threshold": 0.0, "max_value": 6.0, "trainable": true, "name": "block_13_expand_relu", "negative_slope": 0.0}, "inbound_nodes": [[["block_13_expand_BN", 0, 0, {}]]], "name": "block_13_expand_relu"}, {"class_name": "ZeroPadding2D", "config": {"padding": [[0, 1], [0, 1]], "trainable": true, "name": "block_13_pad", "data_format": "channels_last"}, "inbound_nodes": [[["block_13_expand_relu", 0, 0, {}]]], "name": "block_13_pad"}, {"class_name": "DepthwiseConv2D", "config": {"use_bias": false, "trainable": true, "name": "block_13_depthwise", "bias_regularizer": null, "bias_constraint": null, "activation": "linear", "depth_multiplier": 1, "depthwise_constraint": null, "data_format": "channels_last", "padding": "valid", "strides": [2, 2], "dilation_rate": [1, 1], "depthwise_initializer": {"class_name": "VarianceScaling", "config": {"distribution": "uniform", "scale": 1.0, "seed": null, "mode": "fan_avg"}}, "bias_initializer": {"class_name": "Zeros", "config": {}}, "depthwise_regularizer": null, "activity_regularizer": null, "kernel_size": [3, 3]}, "inbound_nodes": [[["block_13_pad", 0, 0, {}]]], "name": "block_13_depthwise"}, {"class_name": "BatchNormalization", "config": {"beta_constraint": null, "gamma_initializer": {"class_name": "Ones", "config": {}}, "moving_mean_initializer": {"class_name": "Zeros", "config": {}}, "name": "block_13_depthwise_BN", "epsilon": 0.001, "trainable": true, "moving_variance_initializer": {"class_name": "Ones", "config": {}}, "beta_initializer": {"class_name": "Zeros", "config": {}}, "scale": true, "axis": -1, "gamma_constraint": null, "gamma_regularizer": null, "beta_regularizer": null, "momentum": 0.999, "center": true}, "inbound_nodes": [[["block_13_depthwise", 0, 0, {}]]], "name": "block_13_depthwise_BN"}, {"class_name": "ReLU", "config": {"threshold": 0.0, "max_value": 6.0, "trainable": true, "name": "block_13_depthwise_relu", "negative_slope": 0.0}, "inbound_nodes": [[["block_13_depthwise_BN", 0, 0, {}]]], "name": "block_13_depthwise_relu"}, {"class_name": "Conv2D", "config": {"kernel_initializer": {"class_name": "VarianceScaling", "config": {"distribution": "uniform", "scale": 1.0, "seed": null, "mode": "fan_avg"}}, "name": "block_13_project", "kernel_constraint": null, "bias_regularizer": null, "bias_constraint": null, "activation": "linear", "trainable": true, "data_format": "channels_last", "padding": "same", "strides": [1, 1], "dilation_rate": [1, 1], "kernel_regularizer": null, "filters": 160, "bias_initializer": {"class_name": "Zeros", "config": {}}, "use_bias": false, "activity_regularizer": null, "kernel_size": [1, 1]}, "inbound_nodes": [[["block_13_depthwise_relu", 0, 0, {}]]], "name": "block_13_project"}, {"class_name": "BatchNormalization", "config": {"beta_constraint": null, "gamma_initializer": {"class_name": "Ones", "config": {}}, "moving_mean_initializer": {"class_name": "Zeros", "config": {}}, "name": "block_13_project_BN", "epsilon": 0.001, "trainable": true, "moving_variance_initializer": {"class_name": "Ones", "config": {}}, "beta_initializer": {"class_name": "Zeros", "config": {}}, "scale": true, "axis": -1, "gamma_constraint": null, "gamma_regularizer": null, "beta_regularizer": null, "momentum": 0.999, "center": true}, "inbound_nodes": [[["block_13_project", 0, 0, {}]]], "name": "block_13_project_BN"}, {"class_name": "Conv2D", "config": {"kernel_initializer": {"class_name": "VarianceScaling", "config": {"distribution": "uniform", "scale": 1.0, "seed": null, "mode": "fan_avg"}}, "name": "block_14_expand", "kernel_constraint": null, "bias_regularizer": null, "bias_constraint": null, "activation": "linear", "trainable": true, "data_format": "channels_last", "padding": "same", "strides": [1, 1], "dilation_rate": [1, 1], "kernel_regularizer": null, "filters": 960, "bias_initializer": {"class_name": "Zeros", "config": {}}, "use_bias": false, "activity_regularizer": null, "kernel_size": [1, 1]}, "inbound_nodes": [[["block_13_project_BN", 0, 0, {}]]], "name": "block_14_expand"}, {"class_name": "BatchNormalization", "config": {"beta_constraint": null, "gamma_initializer": {"class_name": "Ones", "config": {}}, "moving_mean_initializer": {"class_name": "Zeros", "config": {}}, "name": "block_14_expand_BN", "epsilon": 0.001, "trainable": true, "moving_variance_initializer": {"class_name": "Ones", "config": {}}, "beta_initializer": {"class_name": "Zeros", "config": {}}, "scale": true, "axis": -1, "gamma_constraint": null, "gamma_regularizer": null, "beta_regularizer": null, "momentum": 0.999, "center": true}, "inbound_nodes": [[["block_14_expand", 0, 0, {}]]], "name": "block_14_expand_BN"}, {"class_name": "ReLU", "config": {"threshold": 0.0, "max_value": 6.0, "trainable": true, "name": "block_14_expand_relu", "negative_slope": 0.0}, "inbound_nodes": [[["block_14_expand_BN", 0, 0, {}]]], "name": "block_14_expand_relu"}, {"class_name": "DepthwiseConv2D", "config": {"use_bias": false, "trainable": true, "name": "block_14_depthwise", "bias_regularizer": null, "bias_constraint": null, "activation": "linear", "depth_multiplier": 1, "depthwise_constraint": null, "data_format": "channels_last", "padding": "same", "strides": [1, 1], "dilation_rate": [1, 1], "depthwise_initializer": {"class_name": "VarianceScaling", "config": {"distribution": "uniform", "scale": 1.0, "seed": null, "mode": "fan_avg"}}, "bias_initializer": {"class_name": "Zeros", "config": {}}, "depthwise_regularizer": null, "activity_regularizer": null, "kernel_size": [3, 3]}, "inbound_nodes": [[["block_14_expand_relu", 0, 0, {}]]], "name": "block_14_depthwise"}, {"class_name": "BatchNormalization", "config": {"beta_constraint": null, "gamma_initializer": {"class_name": "Ones", "config": {}}, "moving_mean_initializer": {"class_name": "Zeros", "config": {}}, "name": "block_14_depthwise_BN", "epsilon": 0.001, "trainable": true, "moving_variance_initializer": {"class_name": "Ones", "config": {}}, "beta_initializer": {"class_name": "Zeros", "config": {}}, "scale": true, "axis": -1, "gamma_constraint": null, "gamma_regularizer": null, "beta_regularizer": null, "momentum": 0.999, "center": true}, "inbound_nodes": [[["block_14_depthwise", 0, 0, {}]]], "name": "block_14_depthwise_BN"}, {"class_name": "ReLU", "config": {"threshold": 0.0, "max_value": 6.0, "trainable": true, "name": "block_14_depthwise_relu", "negative_slope": 0.0}, "inbound_nodes": [[["block_14_depthwise_BN", 0, 0, {}]]], "name": "block_14_depthwise_relu"}, {"class_name": "Conv2D", "config": {"kernel_initializer": {"class_name": "VarianceScaling", "config": {"distribution": "uniform", "scale": 1.0, "seed": null, "mode": "fan_avg"}}, "name": "block_14_project", "kernel_constraint": null, "bias_regularizer": null, "bias_constraint": null, "activation": "linear", "trainable": true, "data_format": "channels_last", "padding": "same", "strides": [1, 1], "dilation_rate": [1, 1], "kernel_regularizer": null, "filters"…
], "name": "block_3_depthwise_BN_1/moving_mean"}, {"dtype": "float32", "shape": [144], "name": "block_3_depthwise_BN_1/moving_variance"}, {"dtype": "float32", "shape": [32], "name": "block_3_project_BN_1/moving_mean"}, {"dtype": "float32", "shape": [32], "name": "block_3_project_BN_1/moving_variance"}, {"dtype": "float32", "shape": [192], "name": "block_4_expand_BN_1/moving_mean"}, {"dtype": "float32", "shape": [192], "name": "block_4_expand_BN_1/moving_variance"}, {"dtype": "float32", "shape": [192], "name": "block_4_depthwise_BN_1/moving_mean"}, {"dtype": "float32", "shape": [192], "name": "block_4_depthwise_BN_1/moving_variance"}, {"dtype": "float32", "shape": [32], "name": "block_4_project_BN_1/moving_mean"}, {"dtype": "float32", "shape": [32], "name": "block_4_project_BN_1/moving_variance"}, {"dtype": "float32", "shape": [192], "name": "block_5_expand_BN_1/moving_mean"}, {"dtype": "float32", "shape": [192], "name": "block_5_expand_BN_1/moving_variance"}, {"dtype": "float32", "shape": [192], "name": "block_5_depthwise_BN_1/moving_mean"}, {"dtype": "float32", "shape": [192], "name": "block_5_depthwise_BN_1/moving_variance"}, {"dtype": "float32", "shape": [32], "name": "block_5_project_BN_1/moving_mean"}, {"dtype": "float32", "shape": [32], "name": "block_5_project_BN_1/moving_variance"}, {"dtype": "float32", "shape": [192], "name": "block_6_expand_BN_1/moving_mean"}, {"dtype": "float32", "shape": [192], "name": "block_6_expand_BN_1/moving_variance"}, {"dtype": "float32", "shape": [192], "name": "block_6_depthwise_BN_1/moving_mean"}, {"dtype": "float32", "shape": [192], "name": "block_6_depthwise_BN_1/moving_variance"}, {"dtype": "float32", "shape": [64], "name": "block_6_project_BN_1/moving_mean"}, {"dtype": "float32", "shape": [64], "name": "block_6_project_BN_1/moving_variance"}, {"dtype": "float32", "shape": [384], "name": "block_7_expand_BN_1/moving_mean"}, {"dtype": "float32", "shape": [384], "name": "block_7_expand_BN_1/moving_variance"}, {"dtype": "float32", "shape": [384], "name": "block_7_depthwise_BN_1/moving_mean"}, {"dtype": "float32", "shape": [384], "name": "block_7_depthwise_BN_1/moving_variance"}, {"dtype": "float32", "shape": [64], "name": "block_7_project_BN_1/moving_mean"}, {"dtype": "float32", "shape": [64], "name": "block_7_project_BN_1/moving_variance"}, {"dtype": "float32", "shape": [384], "name": "block_8_expand_BN_1/moving_mean"}, {"dtype": "float32", "shape": [384], "name": "block_8_expand_BN_1/moving_variance"}, {"dtype": "float32", "shape": [384], "name": "block_8_depthwise_BN_1/moving_mean"}, {"dtype": "float32", "shape": [384], "name": "block_8_depthwise_BN_1/moving_variance"}, {"dtype": "float32", "shape": [64], "name": "block_8_project_BN_1/moving_mean"}, {"dtype": "float32", "shape": [64], "name": "block_8_project_BN_1/moving_variance"}, {"dtype": "float32", "shape": [384], "name": "block_9_expand_BN_1/moving_mean"}, {"dtype": "float32", "shape": [384], "name": "block_9_expand_BN_1/moving_variance"}, {"dtype": "float32", "shape": [384], "name": "block_9_depthwise_BN_1/moving_mean"}, {"dtype": "float32", "shape": [384], "name": "block_9_depthwise_BN_1/moving_variance"}, {"dtype": "float32", "shape": [64], "name": "block_9_project_BN_1/moving_mean"}, {"dtype": "float32", "shape": [64], "name": "block_9_project_BN_1/moving_variance"}, {"dtype": "float32", "shape": [384], "name": "block_10_expand_BN_1/moving_mean"}, {"dtype": "float32", "shape": [384], "name": "block_10_expand_BN_1/moving_variance"}, {"dtype": "float32", "shape": [384], "name": "block_10_depthwise_BN_1/moving_mean"}, {"dtype": "float32", "shape": [384], "name": "block_10_depthwise_BN_1/moving_variance"}, {"dtype": "float32", "shape": [96], "name": "block_10_project_BN_1/moving_mean"}, {"dtype": "float32", "shape": [96], "name": "block_10_project_BN_1/moving_variance"}, {"dtype": "float32", "shape": [576], "name": "block_11_expand_BN_1/moving_mean"}, {"dtype": "float32", "shape": [576], "name": "block_11_expand_BN_1/moving_variance"}, {"dtype": "float32", "shape": [576], "name": "block_11_depthwise_BN_1/moving_mean"}, {"dtype": "float32", "shape": [576], "name": "block_11_depthwise_BN_1/moving_variance"}, {"dtype": "float32", "shape": [96], "name": "block_11_project_BN_1/moving_mean"}, {"dtype": "float32", "shape": [96], "name": "block_11_project_BN_1/moving_variance"}, {"dtype": "float32", "shape": [576], "name": "block_12_expand_BN_1/moving_mean"}, {"dtype": "float32", "shape": [576], "name": "block_12_expand_BN_1/moving_variance"}, {"dtype": "float32", "shape": [576], "name": "block_12_depthwise_BN_1/moving_mean"}, {"dtype": "float32", "shape": [576], "name": "block_12_depthwise_BN_1/moving_variance"}, {"dtype": "float32", "shape": [96], "name": "block_12_project_BN_1/moving_mean"}, {"dtype": "float32", "shape": [96], "name": "block_12_project_BN_1/moving_variance"}, {"dtype": "float32", "shape": [576], "name": "block_13_expand_BN_1/moving_mean"}, {"dtype": "float32", "shape": [576], "name": "block_13_expand_BN_1/moving_variance"}, {"dtype": "float32", "shape": [576], "name": "block_13_depthwise_BN_1/moving_mean"}, {"dtype": "float32", "shape": [576], "name": "block_13_depthwise_BN_1/moving_variance"}, {"dtype": "float32", "shape": [160], "name": "block_13_project_BN_1/moving_mean"}, {"dtype": "float32", "shape": [160], "name": "block_13_project_BN_1/moving_variance"}, {"dtype": "float32", "shape": [960], "name": "block_14_expand_BN_1/moving_mean"}, {"dtype": "float32", "shape": [960], "name": "block_14_expand_BN_1/moving_variance"}, {"dtype": "float32", "shape": [960], "name": "block_14_depthwise_BN_1/moving_mean"}, {"dtype": "float32", "shape": [960], "name": "block_14_depthwise_BN_1/moving_variance"}, {"dtype": "float32", "shape": [160], "name": "block_14_project_BN_1/moving_mean"}, {"dtype": "float32", "shape": [160], "name": "block_14_project_BN_1/moving_variance"}, {"dtype": "float32", "shape": [960], "name": "block_15_expand_BN_1/moving_mean"}, {"dtype": "float32", "shape": [960], "name": "block_15_expand_BN_1/moving_variance"}, {"dtype": "float32", "shape": [960], "name": "block_15_depthwise_BN_1/moving_mean"}, {"dtype": "float32", "shape": [960], "name": "block_15_depthwise_BN_1/moving_variance"}, {"dtype": "float32", "shape": [160], "name": "block_15_project_BN_1/moving_mean"}, {"dtype": "float32", "shape": [160], "name": "block_15_project_BN_1/moving_variance"}, {"dtype": "float32", "shape": [960], "name": "block_16_expand_BN_1/moving_mean"}, {"dtype": "float32", "shape": [960], "name": "block_16_expand_BN_1/moving_variance"}, {"dtype": "float32", "shape": [960], "name": "block_16_depthwise_BN_1/moving_mean"}, {"dtype": "float32", "shape": [960], "name": "block_16_depthwise_BN_1/moving_variance"}, {"dtype": "float32", "shape": [320], "name": "block_16_project_BN_1/moving_mean"}, {"dtype": "float32", "shape": [320], "name": "block_16_project_BN_1/moving_variance"}, {"dtype": "float32", "shape": [1280], "name": "Conv_1_bn_1/moving_mean"}, {"dtype": "float32", "shape": [1280], "name": "Conv_1_bn_1/moving_variance"}, {"dtype": "float32", "shape": [3, 3, 3, 32], "name": "Conv1_2/kernel"}, {"dtype": "float32", "shape": [32], "name": "bn_Conv1_2/gamma"}, {"dtype": "float32", "shape": [32], "name": "bn_Conv1_2/beta"}, {"dtype": "float32", "shape": [3, 3, 32, 1], "name": "expanded_conv_depthwise_2/depthwise_kernel"}, {"dtype": "float32", "shape": [32], "name": "expanded_conv_depthwise_BN_2/gamma"}, {"dtype": "float32", "shape": [32], "name": "expanded_conv_depthwise_BN_2/beta"}, {"dtype": "float32", "shape": [1, 1, 32, 16], "name": "expanded_conv_project_2/kernel"}, {"dtype": "float32", "shape": [16], "name": "expanded_conv_project_BN_2/gamma"}, {"dtype": "float32", "shape": [16], "name": "expanded_conv_project_BN_2/beta"}, {"dtype": "float32", "shape": [1, 1, 16, 96], "name": "block_1_expand_2/kernel"}, {"dtype": "float32", "shape": [96], "name": "block_1_expand_BN_2/gamma"}, {"dtype": "float32", "shape": [96], "name": "block_1_expand_BN_2/beta"}, {"dtype": "float32", "shape": [3, 3, 96, 1], "name": "block_1_depthwise_2/depthwise_kernel"}, {"dtype": "float32", "shape": [96], "name": "block_1_depthwise_BN_2/gamma"}, {"dtype": "float32", "shape": [96], "name": "block_1_depthwise_BN_2/beta"}, {"dtype": "float32", "shape": [1, 1, 96, 24], "name": "block_1_project_2/kernel"}, {"dtype": "float32", "shape": [24], "name": "block_1_project_BN_2/gamma"}, {"dtype": "float32", "shape": [24], "name": "block_1_project_BN_2/beta"}, {"dtype": "float32", "shape": [1, 1, 24, 144], "name": "block_2_expand_2/kernel"}, {"dtype": "float32", "shape": [144], "name": "block_2_expand_BN_2/gamma"}, {"dtype": "float32", "shape": [144], "name": "block_2_expand_BN_2/beta"}, {"dtype": "float32", "shape": [3, 3, 144, 1], "name": "block_2_depthwise_2/depthwise_kernel"}, {"dtype": "float32", "shape": [144], "name": "block_2_depthwise_BN_2/gamma"}, {"dtype": "float32", "shape": [144], "name": "block_2_depthwise_BN_2/beta"}, {"dtype": "float32", "shape": [1, 1, 144, 24], "name": "block_2_project_2/kernel"}, {"dtype": "float32", "shape": [24], "name": "block_2_project_BN_2/gamma"}, {"dtype": "float32", "shape": [24], "name": "block_2_project_BN_2/beta"}, {"dtype": "float32", "shape": [1, 1, 24, 144], "name": "block_3_expand_2/kernel"}, {"dtype": "float32", "shape": [144], "name": "block_3_expand_BN_2/gamma"}, {"dtype": "float32", "shape": [144], "name": "block_3_expand_BN_2/beta"}, {"dtype": "float32", "shape": [3, 3, 144, 1], "name": "block_3_depthwise_2/depthwise_kernel"}, {"dtype": "float32", "shape": [144], "name": "block_3_depthwise_BN_2/gamma"}, {"dtype": "float32", "shape": [144], "name": "block_3_depthwise_BN_2/beta"}, {"dtype": "float32", "shape": [1, 1, 144, 32], "name": "block_3_project_2/kernel"}, {"dtype": "float32", "shape": [32], "name": "block_3_project_BN_2/gamma"}, {"dtype": "float32", "shape": [32], "name": "block_3_project_BN_2/beta"}, {"dtype": "float32", "shape": [1, 1, 32, 192], "name": "block_4_expand_2/kernel"}, {"dtype": "float32", "shape": [192], "name": "block_4_expand_BN_2/gamma"}, {"dtype": "float32", "shape": [192], "name": "block_4_expand_BN_2/beta"}, {"dtype": "float32", "shape": [3, 3, 192, 1], "name": "block_4_depthwise_2/depthwise_kernel"}, {"dtype": "float32", "shape": [192], "name": "block_4_depthwise_BN_2/gamma"}, {"dtype": "float32", "shape": [192], "name": "block_4_depthwise_BN_2/beta"}, {"dtype": "float32", "shape": [1, 1, 192, 32], "name": "block_4_project_2/kernel"}, {"dtype": "float32", "shape": [32], "name": "block_4_project_BN_2/gamma"}, {"dtype": "float32", "shape": [32], "name": "block_4_project_BN_2/beta"}, {"dtype": "float32", "shape": [1, 1, 32, 192], "name": "block_5_expand_2/kernel"}, {"dtype": "float32", "shape": [192], "name": "block_5_expand_BN_2/gamma"}, {"dtype": "float32", "shape": [192], "name": "block_5_expand_BN_2/beta"}, {"dtype": "float32", "shape": [3, 3, 192, 1], "name": "block_5_depthwise_2/depthwise_kernel"}, {"dtype": "float32", "shape": [192], "name": "block_5_depthwise_BN_2/gamma"}, {"dtype": "float32", "shape": [192], "name": "block_5_depthwise_BN_2/beta"}, {"dtype": "float32", "shape": [1, 1, 192, 32], "name": "block_5_project_2/kernel"}, {"dtype": "float32", "shape": [32], "name": "block_5_project_BN_2/gamma"}, {"dtype": "float32", "shape": [32], "name": "block_5_project_BN_2/beta"}, {"dtype": "float32", "shape": [1, 1, 32, 192], "name": "block_6_expand_2/kernel"}, {"dtype": "float32", "shape": [192], "name": "block_6_expand_BN_2/gamma"}, {"dtype": "float32", "shape": [192], "name": "block_6_expand_BN_2/beta"}, {"dtype": "float32", "shape": [3, 3, 192, 1], "name": "block_6_depthwise_2/depthwise_kernel"}, {"dtype": "float32", "shape": [192], "name": "block_6_depthwise_BN_2/gamma"}, {"dtype": "float32", "shape": [192], "name": "block_6_depthwise_BN_2/beta"}, {"dtype": "float32", "shape": [1, 1, 192, 64], "name": "block_6_project_2/kernel"}, {"dtype": "float32", "shape": [64], "name": "block_6_project_BN_2/gamma"}, {"dtype": "float32", "shape": [64], "name": "block_6_project_BN_2/beta"}, {"dtype": "float32", "shape": [1, 1, 64, 384], "name": "block_7_expand_2/kernel"}, {"dtype": "float32", "shape": [384], "name": "block_7_expand_BN_2/gamma"}, {"dtype": "float32", "shape": [384], "name": "block_7_expand_BN_2/beta"}, {"dtype": "float32", "shape": [3, 3, 384, 1], "name": "block_7_depthwise_2/depthwise_kernel"}, {"dtype": "float32", "shape": [384], "name": "block_7_depthwise_BN_2/gamma"}, {"dtype": "float32", "shape": [384], "name": "block_7_depthwise_BN_2/beta"}, {"dtype": "float32", "shape": [1, 1, 384, 64], "name": "block_7_project_2/kernel"}, {"dtype": "float32", "shape": [64], "name": "block_7_project_BN_2/gamma"}, {"dtype": "float32", "shape": [64], "name": "block_7_project_BN_2/beta"}, {"dtype": "float32", "shape": [1, 1, 64, 384], "name": "block_8_expand_2/kernel"}, {"dtype": "float32", "shape": [384], "name": "block_8_expand_BN_2/gamma"}, {"dtype": "float32", "shape": [384], "name": "block_8_expand_BN_2/beta"}, {"dtype": "float32", "shape": [3, 3, 384, 1], "name": "block_8_depthwise_2/depthwise_kernel"}, {"dtype": "float32", "shape": [384], "name": "block_8_depthwise_BN_2/gamma"}, {"dtype": "float32", "shape": [384], "name": "block_8_depthwise_BN_2/beta"}, {"dtype": "float32", "shape": [1, 1, 384, 64], "name": "block_8_project_2/kernel"}, {"dtype": "float32", "shape": [64], "name": "block_8_project_BN_2/gamma"}, {"dtype": "float32", "shape": [64], "name": "block_8_project_BN_2/beta"}, {"dtype": "float32", "shape": [1, 1, 64, 384], "name": "block_9_expand_2/kernel"}, {"dtype": "float32", "shape": [384], "name": "block_9_expand_BN_2/gamma"}, {"dtype": "float32", "shape": [384], "name": "block_9_expand_BN_2/beta"}, {"dtype": "float32", "shape": [3, 3, 384, 1], "name": "block_9_depthwise_2/depthwise_kernel"}, {"dtype": "float32", "shape": [384], "name": "block_9_depthwise_BN_2/gamma"}, {"dtype": "float32", "shape": [384], "name": "block_9_depthwise_BN_2/beta"}, {"dtype": "float32", "shape": [1, 1, 384, 64], "name": "block_9_project_2/kernel"}, {"dtype": "float32", "shape": [64], "name": "block_9_project_BN_2/gamma"}, {"dtype": "float32", "shape": [64], "name": "block_9_project_BN_2/beta"}, {"dtype": "float32", "shape": [1, 1, 64, 384], "name": "block_10_expand_2/kernel"}, {"dtype": "float32", "shape": [384], "name": "block_10_expand_BN_2/gamma"}, {"dtype": "float32", "shape": [384], "name": "block_10_expand_BN_2/beta"}, {"dtype": "float32", "shape": [3, 3, 384, 1], "name": "block_10_depthwise_2/depthwise_kernel"}, {"dtype": "float32", "shape": [384], "name": "block_10_depthwise_BN_2/gamma"}, {"dtype": "float32", "shape": [384], "name": "block_10_depthwise_BN_2/beta"}, {"dtype": "float32", "shape": [1, 1, 384, 96], "name": "block_10_project_2/kernel"}, {"dtype": "float32", "shape": [96], "name": "block_10_project_BN_2/gamma"}, {"dtype": "float32", "shape": [96], "name": "block_10_project_BN_2/beta"}, {"dtype": "float32", "shape": [1, 1, 96, 576], "name": "block_11_expand_2/kernel"}, {"dtype": "float32", "shape": [576], "name": "block_11_expand_BN_2/gamma"}, {"dtype": "float32", "shape": [576], "name": "block_11_expand_BN_2/beta"}, {"dtype": "float32", "shape": [3, 3, 576, 1], "name": "block_11_depthwise_2/depthwise_kernel"}, {"dtype": "float32", "shape": [576], "name": "block_11_depthwise_BN_2/gamma"}, {"dtype": "float32", "shape": [576], "name": "block_11_depthwise_BN_2/beta"}, {"dtype": "float32", "shape": [1, 1, 576, 96], "name": "block_11_project_2/kernel"}, {"dtype": "float32", "shape": [96], "name": "block_11_project_BN_2/gamma"}, {"dtype": "float32", "shape": [96], "name": "block_11_project_BN_2/beta"}, {"dtype": "float32", "shape": [1, 1, 96, 576], "name": "block_12_expand_2/kernel"}, {"dtype": "float32", "shape": [576], "name": "block_12_expand_BN_2/gamma"}, {"dtype": "float32", "shape": [576], "name": "block_12_expand_BN_2/beta"}, {"dtype": "float32", "shape": [3, 3, 576, 1], "name": "block_12_depthwise_2/depthwise_kernel"}, {"dtype": "float32", "shape": [576], "name": "block_12_depthwise_BN_2/gamma"}, {"dtype": "float32", "shape": [576], "name": "block_12_depthwise_BN_2/beta"}, {"dtype": "float32", "shape": [1, 1, 576, 96], "name": "block_12_project_2/kernel"}, {"dtype": "float32", "shape": [96], "name": "block_12_project_BN_2/gamma"}, {"dtype": "float32", "shape": [96], "name": "block_12_project_BN_2/beta"}, {"dtype": "float32", "shape": [1, 1, 96, 576], "name": "block_13_expand_2/kernel"}, {"dtype": "float32", "shape": [576], "name": "block_13_expand_BN_2/gamma"}, {"dtype": "float32", "shape": [576], "name": "block_13_expand_BN_2/beta"}, {"dtype": "float32", "shape": [3, 3, 576, 1], "name": "block_13_depthwise_2/depthwise_kernel"}, {"dtype": "float32", "shape": [576], "name": "block_13_depthwise_BN_2/gamma"}, {"dtype": "float32", "shape": [576], "name": "block_13_depthwise_BN_2/beta"}, {"dtype": "float32", "shape": [1, 1, 576, 160], "name": "block_13_project_2/kernel"}, {"dtype": "float32", "shape": [160], "name": "block_13_project_BN_2/gamma"}, {"dtype": "float32", "shape": [160], "name": "block_13_project_BN_2/beta"}, {"dtype": "float32", "shape": [1, 1, 160, 960], "name": "block_14_expand_2/kernel"}, {"dtype": "float32", "shape": [960], "name": "block_14_expand_BN_2/gamma"}, {"dtype": "float32", "shape": [960], "name": "block_14_expand_BN_2/beta"}, {"dtype": "float32", "shape": [3, 3, 960, 1], "name": "block_14_depthwise_2/depthwise_kernel"}, {"dtype": "float32", "shape": [960], "name": "block_14_depthwise_BN_2/gamma"}, {"dtype": "float32", "shape": [960], "name": "block_14_depthwise_BN_2/beta"}, {"dtype": "float32", "shape": [1, 1, 960, 160], "name": "block_14_project_2/kernel"}, {"dtype": "float32", "shape": [160], "name": "block_14_project_BN_2/gamma"}, {"dtype": "float32", "shape": [160], "name": "block_14_project_BN_2/beta"}, {"dtype": "float32", "shape": [1, 1, 160, 960], "name": "block_15_expand_2/kernel"}, {"dtype": "float32", "shape": [960], "name": "block_15_expand_BN_2/gamma"}, {"dtype": "float32", "shape": [960], "name": "block_15_expand_BN_2/beta"}, {"dtype": "float32", "shape": [3, 3, 960, 1], "name": "block_15_depthwise_2/depthwise_kernel"}, {"dtype": "float32", "shape": [960], "name": "block_15_depthwise_BN_2/gamma"}, {"dtype": "float32", "shape": [960], "name": "block_15_depthwise_BN_2/beta"}, {"dtype": "float32", "shape": [1, 1, 960, 160], "name": "block_15_project_2/kernel"}, {"dtype": "float32", "shape": [160], "name": "block_15_project_BN_2/gamma"}, {"dtype": "float32", "shape": [160], "name": "block_15_project_BN_2/beta"}, {"dtype": "float32", "shape": [1, 1, 160, 960], "name": "block_16_expand_2/kernel"}, {"dtype": "float32", "shape": [960], "name": "block_16_expand_BN_2/gamma"}, {"dtype": "float32", "shape": [960], "name": "block_16_expand_BN_2/beta"}, {"dtype": "float32", "shape": [3, 3, 960, 1], "name": "block_16_depthwise_2/depthwise_kernel"}, {"dtype": "float32", "shape": [960], "name": "block_16_depthwise_BN_2/gamma"}, {"dtype": "float32", "shape": [960], "name": "block_16_depthwise_BN_2/beta"}, {"dtype": "float32", "shape": [1, 1, 960, 320], "name": "block_16_project_2/kernel"}, {"dtype": "float32", "shape": [320], "name": "block_16_project_BN_2/gamma"}, {"dtype": "float32", "shape": [320], "name": "block_16_project_BN_2/beta"}, {"dtype": "float32", "shape": [1, 1, 320, 1280], "name": "Conv_1_2/kernel"}, {"dtype": "float32", "shape": [1280], "name": "Conv_1_bn_2/gamma"}, {"dtype": "float32", "shape": [1280], "name": "Conv_1_bn_2/beta"}, {"dtype": "float32", "shape": [1280, 256], "name": "dense_67/kernel"}, {"dtype": "float32", "shape": [256], "name": "dense_67/bias"}, {"dtype": "float32", "shape": [256, 3], "name": "dense_68/kernel"}, {"dtype": "float32", "shape": [3], "name": "dense_68/bias"}, {"dtype": "float32", "shape": [32], "name": "bn_Conv1_2/moving_mean"}, {"dtype": "float32", "shape": [32], "name": "bn_Conv1_2/moving_variance"}, {"dtype": "float32", "shape": [32], "name": "expanded_conv_depthwise_BN_2/moving_mean"}, {"dtype": "float32", "shape": [32], "name": "expanded_conv_depthwise_BN_2/moving_variance"}, {"dtype": "float32", "shape": [16], "name": "expanded_conv_project_BN_2/moving_mean"}, {"dtype": "float32", "shape": [16], "name": "expanded_conv_project_BN_2/moving_variance"}, {"dtype": "float32", "shape": [96], "name": "block_1_expand_BN_2/moving_mean"}, {"dtype": "float32", "shape": [96], "name": "block_1_expand_BN_2/moving_variance"}, {"dtype": "float32", "shape": [96], "name": "block_1_depthwise_BN_2/moving_mean"}, {"dtype": "float32", "shape": [96], "name": "block_1_depthwise_BN_2/moving_variance"}, {"dtype": "float32", "shape": [24], "name": "block_1_project_BN_2/moving_mean"}, {"dtype": "float32", "shape": [24], "name": "block_1_project_BN_2/moving_variance"}, {"dtype": "float32", "shape": [144], "name": "block_2_expand_BN_2/moving_mean"}, {"dtype": "float32", "shape": [144], "name": "block_2_expand_BN_2/moving_variance"}, {"dtype": "float32", "shape": [144], "name": "block_2_depthwise_BN_2/moving_mean"}, {"dtype": "float32", "shape": [144], "name": "block_2_depthwise_BN_2/moving_variance"}, {"dtype": "float32", "shape": [24], "name": "block_2_project_BN_2/moving_mean"}, {"dtype": "float32", "shape": [24], "name": "block_2_project_BN_2/moving_variance"}, {"dtype": "float32", "shape": [144], "name": "block_3_expand_BN_2/moving_mean"}, {"dtype": "float32", "shape": [144], "name": "block_3_expand_BN_2/moving_variance"}, {"dtype": "float32", "shape": [144], "name": "block_3_depthwise_BN_2/moving_mean"}, {"dtype": "float32", "shape": [144], "name": "block_3_depthwise_BN_2/moving_variance"}, {"dtype": "float32", "shape": [32], "name": "block_3_project_BN_2/moving_mean"}, {"dtype": "float32", "shape": [32], "name": "block_3_project_BN_2/moving_variance"}, {"dtype": "float32", "shape": [192], "name": "block_4_expand_BN_2/moving_mean"}, {"dtype": "float32", "shape": [192], "name": "block_4_expand_BN_2/moving_variance"}, {"dtype": "float32", "shape": [192], "name": "block_4_depthwise_BN_2/moving_mean"}, {"dtype": "float32", "shape": [192], "name": "block_4_depthwise_BN_2/moving_variance"}, {"dtype": "float32", "shape": [32], "name": "block_4_project_BN_2/moving_mean"}, {"dtype": "float32", "shape": [32], "name": "block_4_project_BN_2/moving_variance"}, {"dtype": "float32", "shape": [192], "name": "block_5_expand_BN_2/moving_mean"}, {"dtype": "float32", "shape": [192], "name": "block_5_expand_BN_2/moving_variance"}, {"dtype": "float32", "shape": [192], "name": "block_5_depthwise_BN_2/moving_mean"}, {"dtype": "float32", "shape": [192], "name": "block_5_depthwise_BN_2/moving_variance"}, {"dtype": "float32", "shape": [32], "name": "block_5_project_BN_2/moving_mean"}, {"dtype": "float32", "shape": [32], "name": "block_5_project_BN_2/moving_variance"}, {"dtype": "float32", "shape": [192], "name": "block_6_expand_BN_2/moving_mean"}, {"dtype": "float32", "shape": [192], "name": "block_6_expand_BN_2/moving_variance"}, {"dtype": "float32", "shape": [192], "name": "block_6_depthwise_BN_2/moving_mean"}, {"dtype": "float32", "shape": [192], "name": "block_6_depthwise_BN_2/moving_variance"}, {"dtype": "float32", "shape": [64], "name": "block_6_project_BN_2/moving_mean"}, {"dtype": "float32", "shape": [64], "name": "block_6_project_BN_2/moving_variance"}, {"dtype": "float32", "shape": [384], "name": "block_7_expand_BN_2/moving_mean"}, {"dtype": "float32", "shape": [384], "name": "block_7_expand_BN_2/moving_variance"}, {"dtype": "float32", "shape": [384], "name": "block_7_depthwise_BN_2/moving_mean"}, {"dtype": "float32", "shape": [384], "name": "block_7_depthwise_BN_2/moving_variance"}, {"dtype": "float32", "shape": [64], "name": "block_7_project_BN_2/moving_mean"}, {"dtype": "float32", "shape": [64], "name": "block_7_project_BN_2/moving_variance"}, {"dtype": "float32", "shape": [384], "name": "block_8_expand_BN_2/moving_mean"}, {"dtype": "float32", "shape": [384], "name": "block_8_expand_BN_2/moving_variance"}, {"dtype": "float32", "shape": [384], "name": "block_8_depthwise_BN_2/moving_mean"}, {"dtype": "float32", "shape": [384], "name": "block_8_depthwise_BN_2/moving_variance"}, {"dtype": "float32", "shape": [64], "name": "block_8_project_BN_2/moving_mean"}, {"dtype": "float32", "shape": [64], "name": "block_8_project_BN_2/moving_variance"}, {"dtype": "float32", "shape": [384], "name": "block_9_expand_BN_2/moving_mean"}, {"dtype": "float32", "shape": [384], "name": "block_9_expand_BN_2/moving_variance"}, {"dtype": "float32", "shape": [384], "name": "block_9_depthwise_BN_2/moving_mean"}, {"dtype": "float32", "shape": [384], "name": "block_9_depthwise_BN_2/moving_variance"}, {"dtype": "float32", "shape": [64], "name": "block_9_project_BN_2/moving_mean"}, {"dtype": "float32", "shape": [64], "name": "block_9_project_BN_2/moving_variance"}, {"dtype": "float32", "shape": [384], "name": "block_10_expand_BN_2/moving_mean"}, {"dtype": "float32", "shape": [384], "name": "block_10_expand_BN_2/moving_variance"}, {"dtype": "float32", "shape": [384], "name": "block_10_depthwise_BN_2/moving_mean"}, {"dtype": "float32", "shape": [384], "name": "block_10_depthwise_BN_2/moving_variance"}, {"dtype": "float32", "shape": [96], "name": "block_10_project_BN_2/moving_mean"}, {"dtype": "float32", "shape": [96], "name": "block_10_project_BN_2/moving_variance"}, {"dtype": "float32", "shape": [576], "name": "block_11_expand_BN_2/moving_mean"}, {"dtype": "float32", "shape": [576], "name": "block_11_expand_BN_2/moving_variance"}, {"dtype": "float32", "shape": [576], "name": "block_11_depthwise_BN_2/moving_mean"}, {"dtype": "float32", "shape": [576], "name": "block_11_depthwise_BN_2/moving_variance"}, {"dtype": "float32", "shape": [96], "name": "block_11_project_BN_2/moving_mean"}, {"dtype": "float32", "shape": [96], "name": "block_11_project_BN_2/moving_variance"}, {"dtype": "float32", "shape": [576], "name": "block_12_expand_BN_2/moving_mean"}, {"dtype": "float32", "shape": [576], "name": "block_12_expand_BN_2/moving_variance"}, {"dtype": "float32", "shape": [576], "name": "block_12_depthwise_BN_2/moving_mean"}, {"dtype": "float32", "shape": [576], "name": "block_12_depthwise_BN_2/moving_variance"}, {"dtype": "float32", "shape": [96], "name": "block_12_project_BN_2/moving_mean"}, {"dtype": "float32", "shape": [96], "name": "block_12_project_BN_2/moving_variance"}, {"dtype": "float32", "shape": [576], "name": "block_13_expand_BN_2/moving_mean"}, {"dtype": "float32", "shape": [576], "name": "block_13_expand_BN_2/moving_variance"}, {"dtype": "float32", "shape": [576], "name": "block_13_depthwise_BN_2/moving_mean"}, {"dtype": "float32", "shape": [576], "name": "block_13_depthwise_BN_2/moving_variance"}, {"dtype": "float32", "shape": [160], "name": "block_13_project_BN_2/moving_mean"}, {"dtype": "float32", "shape": [160], "name": "block_13_project_BN_2/moving_variance"}, {"dtype": "float32", "shape": [960], "name": "block_14_expand_BN_2/moving_mean"}, {"dtype": "float32", "shape": [960], "name": "block_14_expand_BN_2/moving_variance"}, {"dtype": "float32", "shape": [960], "name": "block_14_depthwise_BN_2/moving_mean"}, {"dtype": "float32", "shape": [960], "name": "block_14_depthwise_BN_2/moving_variance"}, {"dtype": "float32", "shape": [160], "name": "block_14_project_BN_2/moving_mean"}, {"dtype": "float32", "shape": [160], "name": "block_14_project_BN_2/moving_variance"}, {"dtype": "float32", "shape": [960], "name": "block_15_expand_BN_2/moving_mean"}, {"dtype": "float32", "shape": [960], "name": "block_15_expand_BN_2/moving_variance"}, {"dtype": "float32", "shape": [960], "name": "block_15_depthwise_BN_2/moving_mean"}, {"dtype": "float32", "shape": [960], "name": "block_15_depthwise_BN_2/moving_variance"}, {"dtype": "float32", "shape": [160], "name": "block_15_project_BN_2/moving_mean"}, {"dtype": "float32", "shape": [160], "name": "block_15_project_BN_2/moving_variance"}, {"dtype": "float32", "shape": [960], "name": "block_16_expand_BN_2/moving_mean"}, {"dtype": "float32", "shape": [960], "name": "block_16_expand_BN_2/moving_variance"}, {"dtype": "float32", "shape": [960], "name": "block_16_depthwise_BN_2/moving_mean"}, {"dtype": "float32", "shape": [960], "name": "block_16_depthwise_BN_2/moving_variance"}, {"dtype": "float32", "shape": [320], "name": "block_16_project_BN_2/moving_mean"}, {"dtype": "float32", "shape": [320], "name": "block_16_project_BN_2/moving_variance"}, {"dtype": "float32", "shape": [1280], "name": "Conv_1_bn_2/moving_mean"}, {"dtype": "float32", "shape": [1280], "name": "Conv_1_bn_2/moving_variance"}, {"dtype": "float32", "shape": [3, 3, 3, 32], "name": "Conv1_3/kernel"}, {"dtype": "float32", "shape": [32], "name": "bn_Conv1_3/gamma"}, {"dtype": "float32", "shape": [32], "name": "bn_Conv1_3/beta"}, {"dtype": "float32", "shape": [3, 3, 32, 1], "name": "expanded_conv_depthwise_3/depthwise_kernel"}, {"dtype": "float32", "shape": [32], "name": "expanded_conv_depthwise_BN_3/gamma"}, {"dtype": "float32", "shape": [32], "name": "expanded_conv_depthwise_BN_3/beta"}, {"dtype": "float32", "shape": [1, 1, 32, 16], "name": "expanded_conv_project_3/kernel"}, {"dtype": "float32", "shape": [16], "name": "expanded_conv_project_BN_3/gamma"}, {"dtype": "float32", "shape": [16], "name": "expanded_conv_project_BN_3/beta"}, {"dtype": "float32", "shape": [1, 1, 16, 96], "name": "block_1_expand_3/kernel"}, {"dtype": "float32", "shape": [96], "name": "block_1_expand_BN_3/gamma"}, {"dtype": "float32", "shape": [96], "name": "block_1_expand_BN_3/beta"}, {"dtype": "float32", "shape": [3, 3, 96, 1], "name": "block_1_depthwise_3/depthwise_kernel"}, {"dtype": "float32", "shape": [96], "name": "block_1_depthwise_BN_3/gamma"}, {"dtype": "float32", "shape": [96], "name": "block_1_depthwise_BN_3/beta"}, {"dtype": "float32", "shape": [1, 1, 96, 24], "name": "block_1_project_3/kernel"}, {"dtype": "float32", "shape": [24], "name": "block_1_project_BN_3/gamma"}, {"dtype": "float32", "shape": [24], "name": "block_1_project_BN_3/beta"}, {"dtype": "float32", "shape": [1, 1, 24, 144], "name": "block_2_expand_3/kernel"}, {"dtype": "float32", "shape": [144], "name": "block_2_expand_BN_3/gamma"}, {"dtype": "float32", "shape": [144], "name": "block_2_expand_BN_3/beta"}, {"dtype": "float32", "shape": [3, 3, 144, 1], "name": "block_2_depthwise_3/depthwise_kernel"}, {"dtype": "float32", "shape": [144], "name": "block_2_depthwise_BN_3/gamma"}, {"dtype": "float32", "shape": [144], "name": "block_2_depthwise_BN_3/beta"}, {"dtype": "float32", "shape": [1, 1, 144, 24], "name": "block_2_project_3/kernel"}, {"dtype": "float32", "shape": [24], "name": "block_2_project_BN_3/gamma"}, {"dtype": "float32", "shape": [24], "name": "block_2_project_BN_3/beta"}, {"dtype": "float32", "shape": [1, 1, 24, 144], "name": "block_3_expand_3/kernel"}, {"dtype": "float32", "shape": [144], "name": "block_3_expand_BN_3/gamma"}, {"dtype": "float32", "shape": [144], "name": "block_3_expand_BN_3/beta"}, {"dtype": "float32", "shape": [3, 3, 144, 1], "name": "block_3_depthwise_3/depthwise_kernel"}, {"dtype": "float32", "shape": [144], "name": "block_3_depthwise_BN_3/gamma"}, {"dtype": "float32", "shape": [144], "name": "block_3_depthwise_BN_3/beta"}, {"dtype": "float32", "shape": [1, 1, 144, 32], "name": "block_3_project_3/kernel"}, {"dtype": "float32", "shape": [32], "name": "block_3_project_BN_3/gamma"}, {"dtype": "float32", "shape": [32], "name": "block_3_project_BN_3/beta"}, {"dtype": "float32", "shape": [1, 1, 32, 192], "name": "block_4_expand_3/kernel"}, {"dtype": "float32", "shape": [192], "name": "block_4_expand_BN_3/gamma"}, {"dtype": "float32", "shape": [192], "name": "block_4_expand_BN_3/beta"}, {"dtype": "float32", "shape": [3, 3, 192, 1], "name": "block_4_depthwise_3/depthwise_kernel"}, {"dtype": "float32", "shape": [192], "name": "block_4_depthwise_BN_3/gamma"}, {"dtype": "float32", "shape": [192], "name": "block_4_depthwise_BN_3/beta"}, {"dtype": "float32", "shape": [1, 1, 192, 32], "name": "block_4_project_3/kernel"}, {"dtype": "float32", "shape": [32], "name": "block_4_project_BN_3/gamma"}, {"dtype": "float32", "shape": [32], "name": "block_4_project_BN_3/beta"}, {"dtype": "float32", "shape": [1, 1, 32, 192], "name": "block_5_expand_3/kernel"}, {"dtype": "float32", "shape": [192], "name": "block_5_expand_BN_3/gamma"}, {"dtype": "float32", "shape": [192], "name": "block_5_expand_BN_3/beta"}, {"dtype": "float32", "shape": [3, 3, 192, 1], "name": "block_5_depthwise_3/depthwise_kernel"}, {"dtype": "float32", "shape": [192], "name": "block_5_depthwise_BN_3/gamma"}, {"dtype": "float32", "shape": [192], "name": "block_5_depthwise_BN_3/beta"}, {"dtype": "float32", "shape": [1, 1, 192, 32], "name": "block_5_project_3/kernel"}, {"dtype": "float32", "shape": [32], "name": "block_5_project_BN_3/gamma"}, {"dtype": "float32", "shape": [32], "name": "block_5_project_BN_3/beta"}, {"dtype": "float32", "shape": [1, 1, 32, 192], "name": "block_6_expand_3/kernel"}, {"dtype": "float32", "shape": [192], "name": "block_6_expand_BN_3/gamma"}, {"dtype": "float32", "shape": [192], "name": "block_6_expand_BN_3/beta"}, {"dtype": "float32", "shape": [3, 3, 192, 1], "name": "block_6_depthwise_3/depthwise_kernel"}, {"dtype": "float32", "shape": [192], "name": "block_6_depthwise_BN_3/gamma"}, {"dtype": "float32", "shape": [192], "name": "block_6_depthwise_BN_3/beta"}, {"dtype": "float32", "shape": [1, 1, 192, 64], "name": "block_6_project_3/kernel"}, {"dtype": "float32", "shape": [64], "name": "block_6_project_BN_3/gamma"}, {"dtype": "float32", "shape": [64], "name": "block_6_project_BN_3/beta"}, {"dtype": "float32", "shape": [1, 1, 64, 384], "name": "block_7_expand_3/kernel"}, {"dtype": "float32", "shape": [384], "name": "block_7_expand_BN_3/gamma"}, {"dtype": "float32", "shape": [384], "name": "block_7_expand_BN_3/beta"}, {"dtype": "float32", "shape": [3, 3, 384, 1], "name": "block_7_depthwise_3/depthwise_kernel"}, {"dtype": "float32", "shape": [384], "name": "block_7_depthwise_BN_3/gamma"}, {"dtype": "float32", "shape": [384], "name": "block_7_depthwise_BN_3/beta"}, {"dtype": "float32", "shape": [1, 1, 384, 64], "name": "block_7_project_3/kernel"}, {"dtype": "float32", "shape": [64], "name": "block_7_project_BN_3/gamma"}, {"dtype": "float32", "shape": [64], "name": "block_7_project_BN_3/beta"}, {"dtype": "float32", "shape": [1, 1, 64, 384], "name": "block_8_expand_3/kernel"}, {"dtype": "float32", "shape": [384], "name": "block_8_expand_BN_3/gamma"}, {"dtype": "float32", "shape": [384], "name": "block_8_expand_BN_3/beta"}, {"dtype": "float32", "shape": [3, 3, 384, 1], "name": "block_8_depthwise_3/depthwise_kernel"}, {"dtype": "float32", "shape": [384], "name": "block_8_depthwise_BN_3/gamma"}, {"dtype": "float32", "shape": [384], "name": "block_8_depthwise_BN_3/beta"}, {"dtype": "float32", "shape": [1, 1, 384, 64], "name": "block_8_project_3/kernel"}, {"dtype": "float32", "shape": [64], "name": "block_8_project_BN_3/gamma"}, {"dtype": "float32", "shape": [64], "name": "block_8_project_BN_3/beta"}, {"dtype": "float32", "shape": [1, 1, 64, 384], "name": "block_9_expand_3/kernel"}, {"dtype": "float32", "shape": [384], "name": "block_9_expand_BN_3/gamma"}, {"dtype": "float32", "shape": [384], "name": "block_9_expand_BN_3/beta"}, {"dtype": "float32", "shape": [3, 3, 384, 1], "name": "block_9_depthwise_3/depthwise_kernel"}, {"dtype": "float32", "shape": [384], "name": "block_9_depthwise_BN_3/gamma"}, {"dtype": "float32", "shape": [384], "name": "block_9_depthwise_BN_3/beta"}, {"dtype": "float32", "shape": [1, 1, 384, 64], "name": "block_9_project_3/kernel"}, {"dtype": "float32", "shape": [64], "name": "block_9_project_BN_3/gamma"}, {"dtype": "float32", "shape": [64], "name": "block_9_project_BN_3/beta"}, {"dtype": "float32", "shape": [1, 1, 64, 384], "name": "block_10_expand_3/kernel"}, {"dtype": "float32", "shape": [384], "name": "block_10_expand_BN_3/gamma"}, {"dtype": "float32", "shape": [384], "name": "block_10_expand_BN_3/beta"}, {"dtype": "float32", "shape": [3, 3, 384, 1], "name": "block_10_depthwise_3/depthwise_kernel"}, {"dtype": "float32", "shape": [384], "name": "block_10_depthwise_BN_3/gamma"}, {"dtype": "float32", "shape": [384], "name": "block_10_depthwise_BN_3/beta"}, {"dtype": "float32", "shape": [1, 1, 384, 96], "name": "block_10_project_3/kernel"}, {"dtype": "float32", "shape": [96], "name": "block_10_project_BN_3/gamma"}, {"dtype": "float32", "shape": [96], "name": "block_10_project_BN_3/beta"}, {"dtype": "float32", "shape": [1, 1, 96, 576], "name": "block_11_expand_3/kernel"}, {"dtype": "float32", "shape": [576], "name": "block_11_expand_BN_3/gamma"}, {"dtype": "float32", "shape": [576], "name": "block_11_expand_BN_3/beta"}, {"dtype": "float32", "shape": [3, 3, 576, 1], "name": "block_11_depthwise_3/depthwise_kernel"}, {"dtype": "float32", "shape": [576], "name": "block_11_depthwise_BN_3/gamma"}, {"dtype": "float32", "shape": [576], "name": "block_11_depthwise_BN_3/beta"}, {"dtype": "float32", "shape": [1, 1, 576, 96], "name": "block_11_project_3/kernel"}, {"dtype": "float32", "shape": [96], "name": "block_11_project_BN_3/gamma"}, {"dtype": "float32", "shape": [96], "name": "block_11_project_BN_3/beta"}, {"dtype": "float32", "shape": [1, 1, 96, 576], "name": "block_12_expand_3/kernel"}, {"dtype": "float32", "shape": [576], "name": "block_12_expand_BN_3/gamma"}, {"dtype": "float32", "shape": [576], "name": "block_12_expand_BN_3/beta"}, {"dtype": "float32", "shape": [3, 3, 576, 1], "name": "block_12_depthwise_3/depthwise_kernel"}, {"dtype": "float32", "shape": [576], "name": "block_12_depthwise_BN_3/gamma"}, {"dtype": "float32", "shape": [576], "name": "block_12_depthwise_BN_3/beta"}, {"dtype": "float32", "shape": [1, 1, 576, 96], "name": "block_12_project_3/kernel"}, {"dtype": "float32", "shape": [96], "name": "block_12_project_BN_3/gamma"}, {"dtype": "float32", "shape": [96], "name": "block_12_project_BN_3/beta"}, {"dtype": "float32", "shape": [1, 1, 96, 576], "name": "block_13_expand_3/kernel"}, {"dtype": "float32", "shape": [576], "name": "block_13_expand_BN_3/gamma"}, {"dtype": "float32", "shape": [576], "name": "block_13_expand_BN_3/beta"}, {"dtype": "float32", "shape": [3, 3, 576, 1], "name": "block_13_depthwise_3/depthwise_kernel"}, {"dtype": "float32", "shape": [576], "name": "block_13_depthwise_BN_3/gamma"}, {"dtype": "float32", "shape": [576], "name": "block_13_depthwise_BN_3/beta"}, {"dtype": "float32", "shape": [1, 1, 576, 160], "name": "block_13_project_3/kernel"}, {"dtype": "float32", "shape": [160], "name": "block_13_project_BN_3/gamma"}, {"dtype": "float32", "shape": [160], "name": "block_13_project_BN_3/beta"}, {"dtype": "float32", "shape": [1, 1, 160, 960], "name": "block_14_expand_3/kernel"}, {"dtype": "float32", "shape": [960], "name": "block_14_expand_BN_3/gamma"}, {"dtype": "float32", "shape": [960], "name": "block_14_expand_BN_3/beta"}, {"dtype": "float32", "shape": [3, 3, 960, 1], "name": "block_14_depthwise_3/depthwise_kernel"}, {"dtype": "float32", "shape": [960], "name": "block_14_depthwise_BN_3/gamma"}, {"dtype": "float32", "shape": [960], "name": "block_14_depthwise_BN_3/beta"}, {"dtype": "float32", "shape": [1, 1, 960, 160], "name": "block_14_project_3/kernel"}, {"dtype": "float32", "shape": [160], "name": "block_14_project_BN_3/gamma"}, {"dtype": "float32", "shape": [160], "name": "block_14_project_BN_3/beta"}, {"dtype": "float32", "shape": [1, 1, 160, 960], "name": "block_15_expand_3/kernel"}, {"dtype": "float32", "shape": [960], "name": "block_15_expand_BN_3/gamma"}, {"dtype": "float32", "shape": [960], "name": "block_15_expand_BN_3/beta"}, {"dtype": "float32", "shape": [3, 3, 960, 1], "name": "block_15_depthwise_3/depthwise_kernel"}, {"dtype": "float32", "shape": [960], "name": "block_15_depthwise_BN_3/gamma"}, {"dtype": "float32", "shape": [960], "name": "block_15_depthwise_BN_3/beta"}, {"dtype": "float32", "shape": [1, 1, 960, 160], "name": "block_15_project_3/kernel"}, {"dtype": "float32", "shape": [160], "name": "block_15_project_BN_3/gamma"}, {"dtype": "float32", "shape": [160], "name": "block_15_project_BN_3/beta"}, {"dtype": "float32", "shape": [1, 1, 160, 960], "name": "block_16_expand_3/kernel"}, {"dtype": "float32", "shape": [960], "name": "block_16_expand_BN_3/gamma"}, {"dtype": "float32", "shape": [960], "name": "block_16_expand_BN_3/beta"}, {"dtype": "float32", "shape": [3, 3, 960, 1], "name": "block_16_depthwise_3/depthwise_kernel"}, {"dtype": "float32", "shape": [960], "name": "block_16_depthwise_BN_3/gamma"}, {"dtype": "float32", "shape": [960], "name": "block_16_depthwise_BN_3/beta"}, {"dtype": "float32", "shape": [1, 1, 960, 320], "name": "block_16_project_3/kernel"}, {"dtype": "float32", "shape": [320], "name": "block_16_project_BN_3/gamma"}, {"dtype": "float32", "shape": [320], "name": "block_16_project_BN_3/beta"}, {"dtype": "float32", "shape": [1, 1, 320, 1280], "name": "Conv_1_3/kernel"}, {"dtype": "float32", "shape": [1280], "name": "Conv_1_bn_3/gamma"}, {"dtype": "float32", "shape": [1280], "name": "Conv_1_bn_3/beta"}, {"dtype": "float32", "shape": [1280, 256], "name": "dense_69/kernel"}, {"dtype": "float32", "shape": [256], "name": "dense_69/bias"}, {"dtype": "float32", "shape": [256, 2], "name": "dense_70/kernel"}, {"dtype": "float32", "shape": [2], "name": "dense_70/bias"}, {"dtype": "float32", "shape": [32], "name": "bn_Conv1_3/moving_mean"}, {"dtype": "float32", "shape": [32], "name": "bn_Conv1_3/moving_variance"}, {"dtype": "float32", "shape": [32], "name": "expanded_conv_depthwise_BN_3/moving_mean"}, {"dtype": "float32", "shape": [32], "name": "expanded_conv_depthwise_BN_3/moving_variance"}, {"dtype": "float32", "shape": [16], "name": "expanded_conv_project_BN_3/moving_mean"}, {"dtype": "float32", "shape": [16], "name": "expanded_conv_project_BN_3/moving_variance"}, {"dtype": "float32", "shape": [96], "name": "block_1_expand_BN_3/moving_mean"}, {"dtype": "float32", "shape": [96], "name": "block_1_expand_BN_3/moving_variance"}, {"dtype": "float32", "shape": [96], "name": "block_1_depthwise_BN_3/moving_mean"}, {"dtype": "float32", "shape": [96], "name": "block_1_depthwise_BN_3/moving_variance"}, {"dtype": "float32", "shape": [24], "name": "block_1_project_BN_3/moving_mean"}, {"dtype": "float32", "shape": [24], "name": "block_1_project_BN_3/moving_variance"}, {"dtype": "float32", "shape": [144], "name": "block_2_expand_BN_3/moving_mean"}, {"dtype": "float32", "shape": [144], "name": "block_2_expand_BN_3/moving_variance"}, {"dtype": "float32", "shape": [144], "name": "block_2_depthwise_BN_3/moving_mean"}, {"dtype": "float32", "shape": [144], "name": "block_2_depthwise_BN_3/moving_variance"}, {"dtype": "float32", "shape": [24], "name": "block_2_project_BN_3/moving_mean"}, {"dtype": "float32", "shape": [24], "name": "block_2_project_BN_3/moving_variance"}, {"dtype": "float32", "shape": [144], "name": "block_3_expand_BN_3/moving_mean"}, {"dtype": "float32", "shape": [144], "name": "block_3_expand_BN_3/moving_variance"}, {"dtype": "float32", "shape": [144], "name": "block_3_depthwise_BN_3/moving_mean"}, {"dtype": "float32", "shape": [144], "name": "block_3_depthwise_BN_3/moving_variance"}, {"dtype": "float32", "shape": [32], "name": "block_3_project_BN_3/moving_mean"}, {"dtype": "float32", "shape": [32], "name": "block_3_project_BN_3/moving_variance"}, {"dtype": "float32", "shape": [192], "name": "block_4_expand_BN_3/moving_mean"}, {"dtype": "float32", "shape": [192], "name": "block_4_expand_BN_3/moving_variance"}, {"dtype": "float32", "shape": [192], "name": "block_4_depthwise_BN_3/moving_mean"}, {"dtype": "float32", "shape": [192], "name": "block_4_depthwise_BN_3/moving_variance"}, {"dtype": "float32", "shape": [32], "name": "block_4_project_BN_3/moving_mean"}, {"dtype": "float32", "shape": [32], "name": "block_4_project_BN_3/moving_variance"}, {"dtype": "float32", "shape": [192], "name": "block_5_expand_BN_3/moving_mean"}, {"dtype": "float32", "shape": [192], "name": "block_5_expand_BN_3/moving_variance"}, {"dtype": "float32", "shape": [192], "name": "block_5_depthwise_BN_3/moving_mean"}, {"dtype": "float32", "shape": [192], "name": "block_5_depthwise_BN_3/moving_variance"}, {"dtype": "float32", "shape": [32], "name": "block_5_project_BN_3/moving_mean"}, {"dtype": "float32", "shape": [32], "name": "block_5_project_BN_3/moving_variance"}, {"dtype": "float32", "shape": [192], "name": "block_6_expand_BN_3/moving_mean"}, {"dtype": "float32", "shape": [192], "name": "block_6_expand_BN_3/moving_variance"}, {"dtype": "float32", "shape": [192], "name": "block_6_depthwise_BN_3/moving_mean"}, {"dtype": "float32", "shape": [192], "name": "block_6_depthwise_BN_3/moving_variance"}, {"dtype": "float32", "shape": [64], "name": "block_6_project_BN_3/moving_mean"}, {"dtype": "float32", "shape": [64], "name": "block_6_project_BN_3/moving_variance"}, {"dtype": "float32", "shape": [384], "name": "block_7_expand_BN_3/moving_mean"}, {"dtype": "float32", "shape": [384], "name": "block_7_expand_BN_3/moving_variance"}, {"dtype": "float32", "shape": [384], "name": "block_7_depthwise_BN_3/moving_mean"}, {"dtype": "float32", "shape": [384], "name": "block_7_depthwise_BN_3/moving_variance"}, {"dtype": "float32", "shape": [64], "name": "block_7_project_BN_3/moving_mean"}, {"dtype": "float32", "shape": [64], "name": "block_7_project_BN_3/moving_variance"}, {"dtype": "float32", "shape": [384], "name": "block_8_expand_BN_3/moving_mean"}, {"dtype": "float32", "shape": [384], "name": "block_8_expand_BN_3/moving_variance"}, {"dtype": "float32", "shape": [384], "name": "block_8_depthwise_BN_3/moving_mean"}, {"dtype": "float32", "shape": [384], "name": "block_8_depthwise_BN_3/moving_variance"}, {"dtype": "float32", "shape": [64], "name": "block_8_project_BN_3/moving_mean"}, {"dtype": "float32", "shape": [64], "name": "block_8_project_BN_3/moving_variance"}, {"dtype": "float32", "shape": [384], "name": "block_9_expand_BN_3/moving_mean"}, {"dtype": "float32", "shape": [384], "name": "block_9_expand_BN_3/moving_variance"}, {"dtype": "float32", "shape": [384], "name": "block_9_depthwise_BN_3/moving_mean"}, {"dtype": "float32", "shape": [384], "name": "block_9_depthwise_BN_3/moving_variance"}, {"dtype": "float32", "shape": [64], "name": "block_9_project_BN_3/moving_mean"}, {"dtype": "float32", "shape": [64], "name": "block_9_project_BN_3/moving_variance"}, {"dtype": "float32", "shape": [384], "name": "block_10_expand_BN_3/moving_mean"}, {"dtype": "float32", "shape": [384], "name": "block_10_expand_BN_3/moving_variance"}, {"dtype": "float32", "shape": [384], "name": "block_10_depthwise_BN_3/moving_mean"}, {"dtype": "float32", "shape": [384], "name": "block_10_depthwise_BN_3/moving_variance"}, {"dtype": "float32", "shape": [96], "name": "block_10_project_BN_3/moving_mean"}, {"dtype": "float32", "shape": [96], "name": "block_10_project_BN_3/moving_variance"}, {"dtype": "float32", "shape": [576], "name": "block_11_expand_BN_3/moving_mean"}, {"dtype": "float32", "shape": [576], "name": "block_11_expand_BN_3/moving_variance"}, {"dtype": "float32", "shape": [576], "name": "block_11_depthwise_BN_3/moving_mean"}, {"dtype": "float32", "shape": [576], "name": "block_11_depthwise_BN_3/moving_variance"}, {"dtype": "float32", "shape": [96], "name": "block_11_project_BN_3/moving_mean"}, {"dtype": "float32", "shape": [96], "name": "block_11_project_BN_3/moving_variance"}, {"dtype": "float32", "shape": [576], "name": "block_12_expand_BN_3/moving_mean"}, {"dtype": "float32", "shape": [576], "name": "block_12_expand_BN_3/moving_variance"}, {"dtype": "float32", "shape": [576], "name": "block_12_depthwise_BN_3/moving_mean"}, {"dtype": "float32", "shape": [576], "name": "block_12_depthwise_BN_3/moving_variance"}, {"dtype": "float32", "shape": [96], "name": "block_12_project_BN_3/moving_mean"}, {"dtype": "float32", "shape": [96], "name": "block_12_project_BN_3/moving_variance"}, {"dtype": "float32", "shape": [576], "name": "block_13_expand_BN_3/moving_mean"}, {"dtype": "float32", "shape": [576], "name": "block_13_expand_BN_3/moving_variance"}, {"dtype": "float32", "shape": [576], "name": "block_13_depthwise_BN_3/moving_mean"}, {"dtype": "float32", "shape": [576], "name": "block_13_depthwise_BN_3/moving_variance"}, {"dtype": "float32", "shape": [160], "name": "block_13_project_BN_3/moving_mean"}, {"dtype": "float32", "shape": [160], "name": "block_13_project_BN_3/moving_variance"}, {"dtype": "float32", "shape": [960], "name": "block_14_expand_BN_3/moving_mean"}, {"dtype": "float32", "shape": [960], "name": "block_14_expand_BN_3/moving_variance"}, {"dtype": "float32", "shape": [960], "name": "block_14_depthwise_BN_3/moving_mean"}, {"dtype": "float32", "shape": [960], "name": "block_14_depthwise_BN_3/moving_variance"}, {"dtype": "float32", "shape": [160], "name": "block_14_project_BN_3/moving_mean"}, {"dtype": "float32", "shape": [160], "name": "block_14_project_BN_3/moving_variance"}, {"dtype": "float32", "shape": [960], "name": "block_15_expand_BN_3/moving_mean"}, {"dtype": "float32", "shape": [960], "name": "block_15_expand_BN_3/moving_variance"}, {"dtype": "float32", "shape": [960], "name": "block_15_depthwise_BN_3/moving_mean"}, {"dtype": "float32", "shape": [960], "name": "block_15_depthwise_BN_3/moving_variance"}, {"dtype": "float32", "shape": [160], "name": "block_15_project_BN_3/moving_mean"}, {"dtype": "float32", "shape": [160], "name": "block_15_project_BN_3/moving_variance"}, {"dtype": "float32", "shape": [960], "name": "block_16_expand_BN_3/moving_mean"}, {"dtype": "float32", "shape": [960], "name": "block_16_expand_BN_3/moving_variance"}, {"dtype": "float32", "shape": [960], "name": "block_16_depthwise_BN_3/moving_mean"}, {"dtype": "float32", "shape": [960], "name": "block_16_depthwise_BN_3/moving_variance"}, {"dtype": "float32", "shape": [320], "name": "block_16_project_BN_3/moving_mean"}, {"dtype": "float32", "shape": [320], "name": "block_16_project_BN_3/moving_variance"}, {"dtype": "float32", "shape": [1280], "name": "Conv_1_bn_3/moving_mean"}, {"dtype": "float32", "shape": [1280], "name": "Conv_1_bn_3/moving_variance"}]}]}